project_data/Pytorch-Models/thalf-model/thalf_model.pt (torch_old, 304510 bytes, 9 tensors)

0.weight f4 [128, 300]
0	0xbd6371e3	-0.055528533
1	0xbd0ec5eb	-0.034856718
2	0x3c43852e	0.011933608
3	0xbacb7f07	-0.0015525528
4	0xbcea104c	-0.028572224
5	0x3d1f1d8d	0.03884654
6	0x3d1ef691	0.038809363
7	0x3d3224ad	0.043492008
8	0x3c4cc39a	0.012497807
9	0x3c94acf7	0.018148882
10	0xbbe80522	-0.00708069
11	0xba8e283a	-0.0010845729
12	0x3d2048b4	0.039131835
13	0x3d2a660c	0.041601226
14	0xbd2a5fc6	-0.041595243
15	0xbc340e37	-0.010989717
16	0x3b69b9be	0.003566369
17	0xbd39d595	-0.045369703
18	0x3c828ecf	0.015937237
19	0xbcfa48c4	-0.030552275
20	0xbd857605	-0.06516651
21	0x3c956745	0.01823772
22	0x3c350ef9	0.011050933
23	0xbc77c521	-0.015122683
24	0x3c92b9b5	0.017910818
25	0xbd4e02bf	-0.050295588
26	0xbcba1461	-0.022714796
27	0xbcf1f5ea	-0.029536206
28	0x3cd765d2	0.026293669
29	0xbcde4c87	-0.0271361
30	0xbd0519f7	-0.032495465
31	0x3d2b5451	0.041828457
32	0xbd31bdd2	-0.043393917
33	0x3c53e1b9	0.012932234
34	0xbd6287c3	-0.055305254
35	0x3d1bfa02	0.038080223
36	0x3d01b7d0	0.031669438
37	0xbc6dcbd4	-0.014513928
38	0x3d110c36	0.035412036
39	0x3d3dbb9b	0.046321493
40	0xbc7db86e	-0.015485866
41	0xbd1770a7	-0.036972668
42	0xbc6d469d	-0.014482168
43	0x3d5feb86	0.054667972
44	0xbc4c8a15	-0.012484093
45	0xbc41ddeb	-0.0118326945
46	0x3c6fc3ae	0.014634056
47	0x3d0c09d3	0.034189057
48	0x3d66d085	0.056351203
49	0x3d212a11	0.03934676
50	0x3cf3e0eb	0.029770335
51	0x3bb8e93e	0.005643039
52	0x3c79c293	0.015244144
53	0xba865f46	-0.0010251782
54	0x3b89cf81	0.0042056446
55	0x3b6dd0df	0.0036287827
56	0xbd328722	-0.043585904
57	0xbd5432fe	-0.051806442
58	0xbc03c279	-0.008041971
59	0xbd2e8687	-0.042608764
60	0x3d5c0044	0.05371119
61	0x3d432434	0.047641948
62	0xbd4752b5	-0.04866286
63	0xbbd0e417	-0.0063748467
64	0x3c01c2f9	0.00792002
65	0x3cdc63e3	0.026903098
66	0x3d2b7b18	0.04186544
67	0xbc8c41dd	-0.01712125
68	0x3c501dc9	0.012702414
69	0x3d6c1ed3	0.057646584
70	0x3b7e5e33	0.0038813471
71	0x3c010a7f	0.007876038
72	0xbb9f7e1e	-0.0048673293
73	0xbc47919b	-0.012180711
74	0x3b2dfc79	0.002654819
75	0x3a827925	0.0009954317
76	0xbc5b84cf	-0.013398363
77	0xbd110ac3	-0.035410654
78	0x3cada06d	0.021194661
79	0xbd18d042	-0.037307985
80	0xbba49a11	-0.005023249
81	0xbc2e1a9d	-0.010626462
82	0x3d513203	0.051073086
83	0x3ba85f18	0.005138289
84	0xbcefb9a1	-0.02926332
85	0x3d38b648	0.045095712
86	0x3c7d29a3	0.0154518215
87	0x3c4598a4	0.012060318
88	0xbd7cf77b	-0.061759453
89	0xba3cee24	-0.00072071166
90	0x3d155f27	0.036467697
91	0x3c9ffe1c	0.019530348
92	0xbd51c901	-0.051217083
93	0xbab00137	-0.0013428096
94	0xbd6f4434	-0.058414653
95	0xbd23d4c6	-0.03999784
96	0xbd4ff859	-0.050773952
97	0xbce25373	-0.027627682
98	0xbd39c626	-0.045354985
99	0xbd577383	-0.052600395
100	0xbc7f7569	-0.015591958
101	0xbc73865a	-0.014863575
102	0xbd4f9440	-0.05067849
103	0x3d0f0983	0.03492118
104	0x3d2feeef	0.042952474
105	0x3c1208dd	0.008913246
106	0xbb89cdf4	-0.0042054597
107	0x3c33c52c	0.010972302
108	0x3c14fbc8	0.009093232
109	0x3d417c23	0.047237527
110	0x3b95c622	0.0045707384
111	0x3c4e998d	0.012609852
112	0xbd001ffb	-0.0312805
113	0x3d1b6068	0.037933737
114	0x3cf8981c	0.030345969
115	0xbcc6ec94	-0.024282731
116	0x3d18c989	0.037301574
117	0x3c2f470c	0.010698091
118	0x3cea44d1	0.028597267
119	0xbd56fc77	-0.052486863
120	0x3ce92908	0.028461948
121	0xbd479153	-0.048722576
122	0xbd2ef58e	-0.042714648
123	0x3c67cc05	0.014147763
124	0x3d4c2180	0.049836636
125	0xbd0d3eab	-0.034483593
126	0xbc5b9ac8	-0.013403602
127	0xbb495cdc	-0.0030725515
128	0x3d4b432c	0.049624607
129	0x3d5bd228	0.053667217
130	0x3d098de8	0.033582598
131	0x3d2a72c8	0.04161337
132	0xbd6e9f71	-0.058257524
133	0x3d4dc1df	0.050233718
134	0x3cf7e00f	0.030258207
135	0x3d4c475c	0.04987274
136	0x3d06fa7e	0.03295373
137	0x3b040e8a	0.0020150268
138	0xbd38f073	-0.045151185
139	0x3d1141cf	0.03546315
140	0xbd4eddde	-0.050504558
141	0x3c47be06	0.012191301
142	0xbd1177d1	-0.035514656
143	0xbba63a1a	-0.005072844
144	0x3c37a95a	0.01120981
145	0xbcc065ff	-0.023486136
146	0x3b6417e8	0.0034804288
147	0xbd6581ed	-0.05603211
148	0xbd120786	-0.035651706
149	0x3bdd5e0e	0.006755597
150	0xbd49e2bf	-0.049288508
151	0xbd25598e	-0.04036861
152	0xbd70757f	-0.058705803
153	0x3c9e7a25	0.019345352
154	0x3c88a94a	0.016682286
155	0x3ce7081f	0.028202115
156	0x3d1adc85	0.03780796
157	0xbd584acc	-0.052805707
158	0xbc87e371	-0.016587945
159	0x3d5e00d3	0.054200005
160	0x3cdb07a4	0.026737042
161	0x3c21d503	0.009877446
162	0x3d1bcab9	0.03803513
163	0x3cee999f	0.029125987
164	0xbd131f3d	-0.035918463
165	0x3d0465f6	0.0323238
166	0xbd366401	-0.044528965
167	0xbd2d7159	-0.042344425
168	0xbd4cea91	-0.050028387
169	0x3b9a2d4b	0.0047051064
170	0x3d1bc709	0.03803161
171	0xbb4e5089	-0.0031481108
172	0xbc825ea1	-0.015914263
173	0xb8fd4da8	-0.00012078445
174	0xbbb72025	-0.0055885487
175	0xbc151440	-0.009099066
176	0xbce49f3f	-0.027907966
177	0xbd50f697	-0.051016416
178	0x3d075db4	0.033048347
179	0x3ba76763	0.00510876
180	0x3cbaa271	0.022782536
181	0xbd7373d1	-0.059436623
182	0x3ceadd27	0.028669907
183	0x3ce0a61e	0.02742296
184	0x3a27830e	0.0006390073
185	0x3a344cf1	0.000687792
186	0xbd2d6900	-0.042336464
187	0xbb6cf854	-0.0036158757
188	0x3c110b98	0.008852862
189	0x3d0dcf04	0.034621254
190	0xbd58d167	-0.052934077
191	0x3d434dc3	0.04768158
192	0xbc78ff8c	-0.015197646
193	0x3c56b047	0.013103551
194	0x3d06c08a	0.032898463
195	0xbce3b1ef	-0.027794806
196	0xbd0a32aa	-0.033739723
197	0xbc86365b	-0.01638334
198	0xbcc96114	-0.024582423
199	0x3c812c02	0.015768055
200	0xbd656d86	-0.056012653
201	0x3d01e4e8	0.031712443
202	0xb9839c77	-0.00025102842
203	0x3cf66475	0.030077199
204	0xbd66e6d3	-0.056372475
205	0x3d114c79	0.03547332
206	0x3c87d8a1	0.016582789
207	0xbbc358c8	-0.0059615113
208	0x3c926575	0.017870644
209	0xbccbd42d	-0.024881447
210	0xbd3c594e	-0.045983605
211	0xbd488486	-0.04895451
212	0xbd84f2ed	-0.06491647
213	0x3c247274	0.010037053
214	0xbd7c0743	-0.061530363
215	0x3d3baf4b	0.04582147
216	0xbd1b5f0e	-0.037932448
217	0xbd2af5c5	-0.04173829
218	0xbc6d25fe	-0.01447439
219	0x3d088b55	0.033336002
220	0xbce0527b	-0.02738308
221	0xbd0e0a4f	-0.0346778
222	0xbd46c2be	-0.048525564
223	0x3cff2446	0.031145226
224	0xbc51d2e7	-0.012806631
225	0x3cd35357	0.025796575
226	0x3d4595aa	0.048238434
227	0xbc8b0da4	-0.016974278
228	0xbd337c5e	-0.043819778
229	0x3d52320c	0.05131726
230	0xbcc237c6	-0.023708235
231	0x3c8a0d43	0.016852027
232	0xbd373727	-0.04473033
233	0x3d346a94	0.044046953
234	0x3d449a3a	0.047998644
235	0x3cbba519	0.022905873
236	0xbd53af33	-0.051680755
237	0xbd118364	-0.035525694
238	0x3caccb00	0.021092892
239	0xbd13ff67	-0.036132243
240	0xbd366a99	-0.044535253
241	0xbd0b372a	-0.033988155
242	0x3c6ce37f	0.014458536
243	0xbc8680b5	-0.016418794
244	0x3d3bbeae	0.045836143
245	0x3c227ac0	0.009916961
246	0x3c50f22e	0.012753053
247	0x3d3d2990	0.046182215
248	0xbc5f6381	-0.013634563
249	0xbb1a5e91	-0.00235549
250	0x3c9a53d6	0.018838804
251	0x3d146ac7	0.036234643
252	0x3d470879	0.048592065
253	0xbd2386be	-0.039923422
254	0x3d79d3b9	0.06099293
255	0x3d09d4f6	0.03365036

0.bias f4 [128]
0	0x3d3ede7a	0.04659889
1	0x3d97838f	0.0739814
2	0xbc979ec3	-0.01850832
3	0x3d121872	0.035667844
4	0x3ab3f940	0.0013730898
5	0xbd0db0b0	-0.03459233
6	0x3c8101c6	0.015747916
7	0xbd59a190	-0.053132594
8	0xbce8050b	-0.028322717
9	0x3cf9a0b4	0.030472137
10	0x3c4b6f7f	0.012416719
11	0x3c542ac5	0.01294965
12	0x3d2ac572	0.041692205
13	0xbd69da40	-0.057092905
14	0xbcc7de40	-0.02439797
15	0xbdee8c75	-0.11647884
16	0x3ce6f6d9	0.028193878
17	0xbd2a4df7	-0.04157826
18	0x3d7b026f	0.061281618
19	0x3c56af7e	0.013103364
20	0xbc8f0aec	-0.017461263
21	0xbd1d4bd5	-0.038402397
22	0x3c5ba8ca	0.013406942
23	0xbd015879	-0.031578515
24	0xbb627bfb	-0.0034558761
25	0x3cc63c5c	0.024198703
26	0x3c7026dc	0.014657702
27	0xbce5aed0	-0.028037459
28	0x3e4def73	0.20110874
29	0xbd041d0f	-0.032254275
30	0x3d51a719	0.051184747
31	0x3d2f21ab	0.042756718
32	0x3c9aef25	0.018912861
33	0x3e6ef5b5	0.23335917
34	0xbcbbc2df	-0.02292007
35	0x3e59a395	0.21253808
36	0x3d2f4ffe	0.042800896
37	0x3cbd60ee	0.023117509
38	0xbca5a629	-0.020220833
39	0x3ba8cf90	0.0051516965
40	0xbc6b5e4c	-0.014365744
41	0xbc1671f5	-0.009182443
42	0x3bb69c63	0.005572842
43	0x3af6e15e	0.0018835475
44	0xbcee0706	-0.029056083
45	0x3da35e3e	0.0797696
46	0x3d19f1ac	0.037583992
47	0xbd684ae2	-0.05671204
48	0xbc15d9d4	-0.009146173
49	0x3cb9159f	0.022593318
50	0xbd1f23a2	-0.03885234
51	0x3d524136	0.05133172
52	0xbbcfc267	-0.0063403132
53	0x3cb734bb	0.022364011
54	0xbd1c4045	-0.03814723
55	0xbbf581e0	-0.007492289
56	0x3d39d72b	0.045371216
57	0xbd4877d0	-0.048942387
58	0xbd2d6ab0	-0.042338073
59	0x3abb6316	0.0014296498
60	0xbbe95768	-0.0071210153
61	0xbd03e04c	-0.032196328
62	0x3d1a9ab4	0.037745193
63	0x3d2a6f7e	0.041610233
64	0xbb7c3e90	-0.0038489439
65	0x3d435186	0.04768517
66	0x3cfe7f45	0.031066546
67	0xbd6f0e87	-0.058363464
68	0xbad9ab06	-0.0016606755
69	0x3d618116	0.055054747
70	0xbd149bba	-0.036281325
71	0x3d1653cc	0.03670101
72	0xbcfa8d08	-0.030584827
73	0x3b9a6d8f	0.0047127674
74	0xbc318258	-0.010834299
75	0x3cedebf1	0.02904317
76	0x3df9bab7	0.12193816
77	0x3d3a3fc3	0.045470964
78	0xbe2a5251	-0.16632964
79	0x3d2982d8	0.041384548
80	0x3d8b6a5d	0.068073966
81	0x3d3b9a90	0.0458017
82	0xbaa020c3	-0.0012216795
83	0xbc237500	-0.009976625
84	0xbc90bfb3	-0.017669534
85	0x3c7d3049	0.015453407
86	0xbcb6f8a0	-0.02233535
87	0x3d3f5998	0.046716303
88	0xbd0605be	-0.03272032
89	0x3dbbffab	0.09179624
90	0xbd62a453	-0.055332493
91	0xbd500e95	-0.050795157
92	0xbbd0ce37	-0.006372239
93	0xbd796cfd	-0.060894955
94	0xbc97f224	-0.018548079
95	0x3d542ed2	0.051802464
96	0x3c6f4ef8	0.01460623
97	0xbba6fab6	-0.005095805
98	0x3a8a9ec0	0.0010575876
99	0x3d441632	0.04787273
100	0x3caae957	0.020863218
101	0x3b5a66ac	0.0033325357
102	0x3c1caf40	0.009563267
103	0x3ce871d9	0.0283746
104	0xbc5e30c2	-0.013561429
105	0xbcef6d7d	-0.029227013
106	0xbd6c3745	-0.057669897
107	0x3bb1dd56	0.0054279966
108	0x3cb2940d	0.021799112
109	0x3ca189e8	0.01971908
110	0x3c93a700	0.018023968
111	0x3d2ad120	0.041703343
112	0x3d3e2525	0.046422143
113	0x3cf7eddc	0.030264787
114	0x3a7de818	0.0009685769
115	0x3d221aeb	0.039576452
116	0x3d4f7aa4	0.05065407
117	0x3d6b4fe1	0.057449225
118	0xbccd35d1	-0.025050076
119	0x3bfe4940	0.007760197
120	0x3d8486e8	0.06471044
121	0xbcac5265	-0.021035383
122	0xbd03d19a	-0.032182314
123	0xbdfa2c83	-0.12215521
124	0xbd2c2145	-0.042023916
125	0x3e6bd4c2	0.2303038
126	0xbd187e98	-0.037230104
127	0x3cb250e3	0.021767085

2.weight f4 [128, 128]
0	0x3da0efb3	0.07858219
1	0xbd0c5a58	-0.034265846
2	0x3d200ca2	0.039074548
3	0x3d8773fd	0.0661392
4	0x3d760caa	0.06007067
5	0x3d6ef9b7	0.058343615
6	0xbd857f44	-0.065184146
7	0x3cad1dd0	0.02113238
8	0xbd734b80	-0.059398174
9	0xbdfdea30	-0.12398183
10	0x3d23f7ee	0.040031366
11	0xbd9f7bb3	-0.07787266
12	0x3c91846c	0.017763339
13	0x3d344722	0.04401315
14	0x3d7d8d16	0.06190213
15	0xbc06548f	-0.008198871
16	0x3db5d099	0.088776775
17	0x3d112f8c	0.035445735
18	0x3d1fe228	0.03903404
19	0x3c722460	0.01477918
20	0xbd8b83b4	-0.0681223
21	0x3c62ea88	0.013849862
22	0xbd7f45c2	-0.062322386
23	0x3be0c450	0.00685934
24	0xbd220a6b	-0.039560717
25	0xbd92536c	-0.07144818
26	0xbb47d8c3	-0.003049419
27	0x3c9cf860	0.019161403
28	0x3d143d00	0.036190987
29	0x3d42e6ce	0.047583394
30	0x3cf013b4	0.02930627
31	0xbcc4c310	-0.024018794
32	0xbd0cc07a	-0.034363247
33	0xbe664219	-0.22486152
34	0x3c7bd2d2	0.015370088
35	0xbe185e37	-0.1487969
36	0xbdac3a40	-0.08409548
37	0xbc74f3f6	-0.014950743
38	0x3cc687d5	0.024234692
39	0x3d90b64f	0.070660226
40	0xbcaaa828	-0.020832136
41	0x3cde8eb5	0.027167657
42	0xbda6f76d	-0.081526615
43	0xbda93ee0	-0.082639456
44	0x3cda7bcc	0.02667036
45	0xbe4197bc	-0.18905538
46	0x3be03a60	0.0068428963
47	0x3d847fdf	0.06469702
48	0x3ce9c7bc	0.028537624
49	0x3c9851d6	0.01859371
50	0xbc9184b1	-0.017763468
51	0x3dadf12b	0.08493265
52	0x3d7879e6	0.060663126
53	0x3bb9ffc4	0.0056762416
54	0x3d47ff8e	0.0488277
55	0x3d173946	0.036919855
56	0x3d54be72	0.051939435
57	0x3d9523cb	0.072822176
58	0x3d5be69e	0.05368673
59	0xbd99a8dd	-0.07502911
60	0x3c942a90	0.018086702
61	0xbc6b3748	-0.014356442
62	0xbd444641	-0.04791856
63	0xbd86db10	-0.065847516
64	0x3ce03984	0.027371176
65	0xbd86fd8f	-0.06591331
66	0x3d147a46	0.03624942
67	0x3d8c12ef	0.06839549
68	0xbd3ff1fd	-0.046861637
69	0x3d5fb16e	0.05461257
70	0xbe03b555	-0.12862141
71	0x3b1eac40	0.0024211556
72	0x3da003bf	0.078132145
73	0x3db1e2ff	0.08685874
74	0xbd83d508	-0.06437117
75	0xbcd5ead3	-0.02611295
76	0xbe8fe829	-0.28106812
77	0x3cf27100	0.029594898
78	0x3cf9541b	0.030435612
79	0x3d2438d6	0.040093265
80	0x3d9224bc	0.07135913
81	0x3d2fc92a	0.042916454
82	0x3cf73988	0.0301788
83	0xbd72e810	-0.059303343
84	0x3d97eba3	0.07417991
85	0x3d93f859	0.07225103
86	0xbc686b78	-0.014185779
87	0xbda8e5a8	-0.082469285
88	0xbd6f53be	-0.058429472
89	0x3d85e3cf	0.06537592
90	0xbd4df655	-0.05028375
91	0xbd761084	-0.060074344
92	0x3d8fdd8b	0.07024678
93	0x3d7f3aae	0.06231182
94	0x3cf67cfa	0.03008889
95	0x3d004198	0.031312555
96	0x3d5b7a06	0.053583167
97	0xbca13298	-0.019677445
98	0x3d6a87a0	0.05725825
99	0x3d5a7822	0.053337224
100	0xbd869ddc	-0.06573078
101	0xbd6c04e9	-0.05762187
102	0xbcd6e7f4	-0.02623365
103	0xbed79a67	-0.42109987
104	0x3d40d7ee	0.047080927
105	0xbdb7e34b	-0.089788996
106	0xbda431d8	-0.080173194
107	0xbd628ead	-0.055311847
108	0xbd880bd9	-0.06642885
109	0x3ac636c0	0.0015122518
110	0x3d2b671a	0.041846372
111	0x3d6cd736	0.05782243
112	0x3d3612f2	0.04445166
113	0x3d492e7e	0.049116604
114	0x3a422480	0.00074059516
115	0x3cd6cd28	0.026220873
116	0xbb5d52f1	-0.003377136
117	0xbc549afe	-0.012976406
118	0x3d425b26	0.047450207
119	0xbc676154	-0.014122326
120	0xbd926962	-0.071490064
121	0xbda1a7af	-0.07893311
122	0xbd4d08d8	-0.050057262
123	0x3e85f1fa	0.26161176
124	0x3c9b5c4e	0.018964913
125	0xbbd39ef5	-0.006458158
126	0xbd154437	-0.036442008
127	0x3d94a027	0.07257109
128	0x3d14aa36	0.03629514
129	0x3bf5c3b8	0.007500138
130	0xbd92c531	-0.071665175
131	0x3cd551ec	0.02604004
132	0x3d6f9976	0.05849596
133	0xbda4520f	-0.08023464
134	0x3dcf0bc9	0.1010967
135	0xbc8bc4dc	-0.017061643
136	0xbc6cdfc0	-0.014457643
137	0x3d264598	0.040593714
138	0x3d3a24ec	0.045445368
139	0x3d048edb	0.0323628
140	0x3db206c5	0.086926974
141	0xbda497c8	-0.080367625
142	0xbd042ac6	-0.032267354
143	0xbca30efa	-0.019904602
144	0xbd89ba4b	-0.06724986
145	0xbdabbda6	-0.08385782
146	0x3d99da04	0.07512286
147	0x3d9a08de	0.075212225
148	0xbcfd429f	-0.030915556
149	0x3d5b3f3d	0.053527106
150	0xbd2f5ee7	-0.042815115
151	0x3ca6aded	0.020346606
152	0x3c056f77	0.008144251
153	0x3bb88710	0.005631335
154	0xbd9576cf	-0.072980516
155	0x3d20a569	0.039220247
156	0x3e4a0ada	0.19730702
157	0x3d7f8c57	0.062389698
158	0xbd10cd1d	-0.03535186
159	0xbcac91ea	-0.021065671
160	0x3d4f4d3f	0.050610777
161	0xbe349d0c	-0.17638034
162	0x3d885c6c	0.06658253
163	0x3e9b298f	0.30305144
164	0x3d1d6f12	0.038436003
165	0x3d878ed2	0.06619038
166	0xbb0fd7fd	-0.0021948807
167	0x3d8fb7e9	0.070175
168	0x3bf753b0	0.007547818
169	0x3d701077	0.058609452
170	0x3ca3daca	0.020001788
171	0x3d7d7509	0.06187919
172	0x3a385bbb	0.0007032712
173	0x3dfe49a8	0.124163926
174	0x3c63f317	0.013912938
175	0xbb7d4a60	-0.0038649067
176	0x3b5203f7	0.003204582
177	0xbd19ae77	-0.0375199
178	0x3d038929	0.032113228
179	0x39b8e5a9	0.00035266325
180	0xbd3283c6	-0.0435827
181	0x3c02097a	0.00793683
182	0x3d0fb8dd	0.03508841
183	0x3b8343d0	0.0040058866
184	0xbc55f4a7	-0.013058818
185	0x3db9c3b5	0.09070531
186	0xbc859dde	-0.016310629
187	0xbd7b8093	-0.061401915
188	0xbd98eb45	-0.07466749
189	0x3c202c90	0.0097762495
190	0xbcad7ee0	-0.021178663
191	0xbd26522e	-0.040605716
192	0x3bb84670	0.005623631
193	0xbd89fad0	-0.06737292
194	0x3d32b589	0.043630157
195	0xbb9bbfd0	-0.0047530904
196	0x3d292b8a	0.041301288
197	0x3ca5d940	0.020245194
198	0x3d584ba6	0.05280652
199	0x3c49a9ed	0.01230858
200	0xbd5b108a	-0.05348257
201	0xbbeff601	-0.007323027
202	0x3d25cf92	0.040481158
203	0x3d194a9d	0.037424672
204	0xbe04592d	-0.12924643
205	0x3c903084	0.017601259
206	0xbd0594ae	-0.032612495
207	0x3ca1904f	0.019722132
208	0x3d4e3376	0.050342046
209	0x3cf18ac8	0.029485121
210	0xbd8b5b78	-0.06804556
211	0x3d8b8b9d	0.068137385
212	0xbd5a398d	-0.05327754
213	0xbd958b97	-0.07302015
214	0x3d118064	0.035522833
215	0xbbb4cb72	-0.0055174166
216	0x3d6d9080	0.057999134
217	0x3d8e4c14	0.069481045
218	0xbcea0758	-0.028567955
219	0x3d0cd606	0.034383796
220	0x3d14ed1d	0.03635894
221	0xbd45d23e	-0.048296206
222	0xbd2a7070	-0.041611135
223	0xbcb95528	-0.022623613
224	0xbd5c738a	-0.053821124
225	0xbccecdbd	-0.025244588
226	0xbd8fbaa6	-0.07018022
227	0x3d16e882	0.03684283
228	0xbd8d78a4	-0.06907776
229	0x3d13d000	0.036087036
230	0xbda2054b	-0.07911166
231	0xbedf0c95	-0.43564287
232	0x3b8cdd22	0.004298822
233	0x3cea6135	0.028610805
234	0x3b007620	0.0019601658
235	0xbdb2d999	-0.0873291
236	0xbc439010	-0.011936203
237	0xbcaabafc	-0.020841114
238	0xbd012285	-0.03152706
239	0x3db044f3	0.08606901
240	0xbdaf2fc6	-0.08554034
241	0x3ce10824	0.027469702
242	0xbb986a26	-0.0046513258
243	0xb9fa4d0e	-0.00047741126
244	0x3d8784ca	0.066171244
245	0xbd97b555	-0.07407633
246	0x3cd1ba87	0.025601638
247	0x3c7cdd28	0.015433587
248	0xbd2304d0	-0.03979951
249	0x3d256bbc	0.040385947
250	0xbc9f6018	-0.019455
251	0xbe8b833b	-0.27248558
252	0x3dab4706	0.08363156
253	0x3e88f4fc	0.26749408
254	0xbd853053	-0.06503358
255	0x3d68a73e	0.05680012

2.bias f4 [128]
0	0xbe9672c6	-0.2938444
1	0xbe05dc1e	-0.1307225
2	0x3f2e640a	0.681214
3	0xbd77236f	-0.060336526
4	0xbd5d6b5b	-0.05405746
5	0x3e307e88	0.17235768
6	0x3ee8a22f	0.45436236
7	0x3e449539	0.19197549
8	0xbe5c5b1e	-0.21519133
9	0xbe3edd15	-0.18639024
10	0xbbaed828	-0.0053358264
11	0xbe2647ef	-0.16238378
12	0xbdcb1314	-0.09915748
13	0xbe184323	-0.1486936
14	0xbd42c6d3	-0.047552895
15	0x3ed9fd8a	0.42576247
16	0xbdfcce72	-0.12344064
17	0xbde2dd57	-0.110773735
18	0x3ed73b99	0.42037657
19	0xbe6ab001	-0.22918703
20	0x3e3929c6	0.18082342
21	0x3d9ce1ec	0.07660279
22	0xbe4272e8	-0.18989146
23	0xbe1cb5c1	-0.15303709
24	0xbd00c364	-0.03143634
25	0x3e3f9866	0.18710479
26	0x3e077bf5	0.1323088
27	0x3ce3f17c	0.02782511
28	0xbe09f9eb	-0.13474242
29	0xbde3abb4	-0.11116734
30	0xbe2c726a	-0.1684052
31	0xbe2c1d89	-0.16808142
32	0x3deead68	0.11654168
33	0xbe7066dd	-0.23476739
34	0x3cf559ac	0.029949985
35	0xbea688a6	-0.3252613
36	0xbccb923e	-0.024850007
37	0xbeb37df6	-0.35057038
38	0x3e9f83ee	0.31155342
39	0x3e86d429	0.2633374
40	0xbd8c4ef5	-0.06850997
41	0x3ebc521f	0.36781403
42	0xbe0aeb4e	-0.13566324
43	0xbe8105bd	-0.2519969
44	0x3f16a851	0.5885058
45	0xbe37d163	-0.17950968
46	0x3d197064	0.0374607
47	0x3ede230e	0.4338612
48	0x3eacc7bb	0.33746132
49	0xbe9f90ba	-0.31165105
50	0x3e13e45a	0.14442578
51	0xbe0e0551	-0.13869216
52	0x3f1d96b4	0.6155808
53	0xbe19116b	-0.1494805
54	0x3efe09a8	0.49616742
55	0xbe9dc4da	-0.30814248
56	0xbd32beda	-0.04363904
57	0xbd7c4f3c	-0.061599
58	0xbe57989b	-0.21054308
59	0xbe8d28eb	-0.2757028
60	0xbe4101a1	-0.18848278
61	0xbe7d2342	-0.24720481
62	0xbda64444	-0.081184894
63	0xbd0d7d23	-0.034543168
64	0xbe2df204	-0.16986853
65	0xbec42796	-0.38311452
66	0xbd8b6ca9	-0.06807835
67	0xbda31ee0	-0.07964873
68	0x3e0e2194	0.13879997
69	0xbe829bc6	-0.2550947
70	0xbdd78438	-0.105232656
71	0x3e8ba173	0.27271613
72	0x3ede8b75	0.43465772
73	0xbd1a5675	-0.037680108
74	0x3dcab9f1	0.09898747
75	0xbc893be7	-0.016752196
76	0xbec36401	-0.38162234
77	0x3ed6476b	0.41851363
78	0xbe80ade6	-0.25132674
79	0x3eb554fd	0.35416403
80	0x3e1150b4	0.14190942
81	0xbd5dd3be	-0.05415701
82	0xbe1effd2	-0.15527275
83	0xbe9cfccf	-0.30661628
84	0xbee7ef40	-0.4529972
85	0xbdf27870	-0.11839378
86	0x3ed01948	0.40644288
87	0xbddc9bc6	-0.10771899
88	0xbe335a42	-0.175149
89	0xbe207180	-0.15668297
90	0xbe560bcc	-0.20902938
91	0xbe5b86ad	-0.21438093
92	0xbe1ff874	-0.15622121
93	0x3dd092a0	0.101842165
94	0xbea3abd2	-0.31967026
95	0xbd6106ae	-0.05493801
96	0x3c3ee24c	0.011650633
97	0xbe3dc32a	-0.1853148
98	0x3ee8a7cd	0.45440522
99	0xbf01bbf0	-0.50677395
100	0x3efffefe	0.4999923
101	0xbe9394b9	-0.28824404
102	0xbee6c94c	-0.45075452
103	0xbe725cd5	-0.23668225
104	0xbd1f1f1e	-0.038848035
105	0x3e18e889	0.14932455
106	0xbe01db7c	-0.12681383
107	0xbdd443b8	-0.10364479
108	0xbe2bce27	-0.1677786
109	0xbe8ec6ab	-0.27885947
110	0x3e45a3a0	0.19300699
111	0xbe4bb0d2	-0.1989167
112	0x3efe0ea2	0.4962054
113	0x3ca7d228	0.020485952
114	0xbc3ce5ab	-0.0115293665
115	0xbe21652f	-0.15761255
116	0x3c48844f	0.012238576
117	0x3e765cac	0.24058789
118	0xbea3cb7e	-0.3199119
119	0xbe465d68	-0.19371569
120	0xbc87be6f	-0.016570298
121	0x3e344bc2	0.17607024
122	0xbe88f97a	-0.26752836
123	0x3e5c6286	0.21521959
124	0xbdf8907f	-0.121369354
125	0xbe9d184b	-0.30682597
126	0x3e5b00c3	0.2138701
127	0xbec7d96e	-0.39033073

4.weight f4 [128, 128]
0	0x3cda2d7c	0.026633017
1	0xbcb4cef7	-0.022071345
2	0xbd9cf33d	-0.076635815
3	0x3c21de6c	0.00987969
4	0xbd7ffdad	-0.062497783
5	0xbd8bfcc3	-0.0683532
6	0x3d43d208	0.047807723
7	0xbd451e63	-0.048124682
8	0xbdd88ba5	-0.1057351
9	0xbda667ef	-0.081252925
10	0xbd7e5f03	-0.06210233
11	0x3d33a1b6	0.04385539
12	0xbc2488ca	-0.010042379
13	0x3d87f0a9	0.06637699
14	0x3d619baf	0.055080112
15	0xbcb3921e	-0.02192026
16	0xbca91782	-0.020641092
17	0xbe2c865b	-0.16848128
18	0xbb84d601	-0.0040538316
19	0xbd523c14	-0.051326826
20	0xbca243e3	-0.019807762
21	0x3b5aed0b	0.0033405449
22	0xbd2148a3	-0.039375912
23	0xbd3991f4	-0.045305207
24	0x3c34d334	0.011036683
25	0x3c8db4ba	0.017298091
26	0xbe1414d6	-0.14461073
27	0xbda56940	-0.080767155
28	0x3da215d2	0.07914318
29	0xbccbbe51	-0.024871023
30	0x3cbf68b5	0.023365358
31	0xbd95df33	-0.073179625
32	0xbd2edaa8	-0.042688996
33	0x3d70af56	0.058760963
34	0xbd5487a1	-0.05188716
35	0x3bb8d856	0.0056410236
36	0xbd2e50ae	-0.04255741
37	0x3cdf509f	0.027260123
38	0xbd39ba08	-0.04534343
39	0xbda85137	-0.082186155
40	0xbc3d16bd	-0.011541066
41	0x3d5d8872	0.054085203
42	0xbe054d01	-0.13017656
43	0xbcbaf179	-0.022820221
44	0x3c3cb3ee	0.011517508
45	0xba73ed78	-0.00093051
46	0xbd3b7683	-0.04576732
47	0xbe1a93b1	-0.15095402
48	0x3c6dda29	0.0145173455
49	0xbd8ba39e	-0.06818317
50	0xbd4769da	-0.048684932
51	0x3c98ca83	0.018651253
52	0xbb547faf	-0.0032424738
53	0xbe12775e	-0.14303347
54	0xbdd224e4	-0.102609426
55	0x3dd60187	0.1044951
56	0xbd7b3aab	-0.061335247
57	0xbcc5a0a2	-0.024124447
58	0xbd5531bf	-0.052049395
59	0x3cc34998	0.023838803
60	0xbbd07abb	-0.006362287
61	0x3d24e129	0.040253792
62	0x3da6e17b	0.08148476
63	0xbd5f929c	-0.054583177
64	0x3c231eb6	0.0099560525
65	0xba87548b	-0.0010324878
66	0xbcce3f15	-0.025176564
67	0xbb96647d	-0.004589616
68	0x3d109cf8	0.035305947
69	0x3d211087	0.039322402
70	0xbe3044c0	-0.17213726
71	0xbe36569b	-0.17806475
72	0xbe2c33a2	-0.16816571
73	0xbaf43f00	-0.0018634498
74	0xbe29b3b3	-0.16572456
75	0xbadbb909	-0.0016763519
76	0xbc404d4d	-0.01173718
77	0xbd88d36e	-0.06680952
78	0xbdcf231f	-0.10114121
79	0xbdf17ac1	-0.117909916
80	0xbd8570ed	-0.065156795
81	0xbcf8e305	-0.030381689
82	0x3d9fbc22	0.07799555
83	0xbdfb3a91	-0.1226703
84	0xbd16ce83	-0.03681804
85	0x3d2a1ff7	0.04153439
86	0xbe7ee38c	-0.2489149
87	0xbd92beec	-0.07165322
88	0xbe321f19	-0.17394675
89	0x3d075214	0.03303726
90	0xbda6b6c1	-0.08140326
91	0xbe6e478c	-0.2326948
92	0xbdfe9b9e	-0.124320254
93	0xbd8632ff	-0.065526955
94	0xbdaa9eac	-0.083310455
95	0xbd3984fb	-0.045292836
96	0xbd8f3bb3	-0.069938086
97	0x3dbd4933	0.09242477
98	0x3dfb969c	0.12284586
99	0xbdf56e32	-0.11983909
100	0x3cbd8783	0.023135906
101	0xbde6d3a6	-0.112708375
102	0x3cd64de3	0.026160186
103	0xbd6fab67	-0.05851307
104	0x3d350808	0.044197112
105	0x3daadc9c	0.08342859
106	0x3ddf2df3	0.10897436
107	0xbd0bd769	-0.034140978
108	0xbde4d869	-0.111740895
109	0xbd47ef5e	-0.048812263
110	0xbdc65456	-0.096840546
111	0xbdd3d3c9	-0.10343129
112	0xbb8b9a02	-0.0042603025
113	0xbe8bb378	-0.2728536
114	0xbc115501	-0.008870364
115	0x3d90953c	0.07059714
116	0xbe0ffc6b	-0.14061134
117	0x3dd61f9a	0.10455246
118	0x3dc7d211	0.09756864
119	0x3b95a91f	0.00456728
120	0x3de28672	0.110608
121	0xbcebf35c	-0.028802566
122	0x3d0e8aa4	0.034800187
123	0x3d3e5928	0.046471745
124	0xbc4f3572	-0.01264702
125	0x3b89c077	0.004203852
126	0xbcac3631	-0.021021934
127	0x3d18810e	0.03723245
128	0xbd6be212	-0.057588644
129	0xbe09b7e4	-0.13449055
130	0xbc8f2bd7	-0.01747696
131	0x3da58555	0.08082072
132	0xbe3b0ae3	-0.18265872
133	0xbd636407	-0.055515315
134	0x3e0f65fc	0.14003748
135	0xbe8cbb08	-0.27486444
136	0xbdf24320	-0.11829209
137	0xbcf6a136	-0.030106168
138	0xbde6e26d	-0.11273656
139	0xbd09aeee	-0.03361409
140	0xbbf01c1a	-0.0073275687
141	0xbda7c17c	-0.08191201
142	0xbdb9eff2	-0.09078969
143	0x3d5a4aa6	0.053293847
144	0xbda6cd48	-0.08144623
145	0xbf1af404	-0.6052859
146	0xbd81f9b5	-0.06346456
147	0x3cf32589	0.029680984
148	0xbe06470d	-0.13113041
149	0xbeb76db5	-0.35825887
150	0xbefb995e	-0.49140447
151	0x3e32b362	0.17451242
152	0x3c550d54	0.013003666
153	0xbebbe4fb	-0.36698136
154	0xbe8bb8e5	-0.272895
155	0xbdb7f1e0	-0.08981681
156	0x3d207c7c	0.039181218
157	0xbcc9452e	-0.02456912
158	0x3d8975c8	0.06711918
159	0xbec65807	-0.38739035
160	0x3d3d3810	0.046196043
161	0xbce46920	-0.027882159
162	0xbdf82217	-0.12115877
163	0xbe39b591	-0.18135668
164	0x3d88ee30	0.06686056
165	0xbd151970	-0.036401212
166	0x3d11aca1	0.035565022
167	0xbe66e256	-0.22547278
168	0x3ce73bd2	0.028226767
169	0xbec65651	-0.3873773
170	0x3e714ca8	0.23564398
171	0x3da2265f	0.07917475
172	0xbda869bf	-0.082232945
173	0x3e27539a	0.16340485
174	0xbddc426f	-0.10754859
175	0x3d26f881	0.040764336
176	0xbd252cc8	-0.04032591
177	0x3d9f4271	0.077763446
178	0xb9d37d07	-0.0004033821
179	0x3d364c2a	0.04450623
180	0x3e6983ce	0.22804186
181	0xbedd3bc9	-0.43209675
182	0x3cd6cacc	0.026219748
183	0xbe6cd8cd	-0.23129578
184	0xbe7e7783	-0.24850278
185	0x3cf2efa8	0.029655293
186	0x3cd0e719	0.025500821
187	0xbe49b641	-0.1969843
188	0xbd5091bb	-0.05092023
189	0xbdd3001a	-0.10302754
190	0x3d916290	0.070988774
191	0x3cf7fea1	0.030272784
192	0xbe266ac2	-0.16251662
193	0xbd383695	-0.04497393
194	0xbdbc6b20	-0.0920012
195	0x3d442b12	0.047892638
196	0xbda4f246	-0.080540225
197	0x3b8e1cb4	0.004336918
198	0xbe740c84	-0.238329
199	0xbe83a644	-0.25712788
200	0xbe883f1e	-0.26610655
201	0x3cbc6a04	0.022999771
202	0x3de5e1ec	0.11224732
203	0x3d84ae24	0.06478527
204	0xbdce25a9	-0.10065777
205	0xbd26ef0a	-0.04075531
206	0xbd29670c	-0.04135804
207	0x3db621e5	0.088931836
208	0x3ceace7f	0.028662918
209	0x3d703332	0.058642574
210	0x3d670240	0.05639863
211	0xbdf8520e	-0.12125026
212	0xbd123095	-0.035690863
213	0xbc709355	-0.014683564
214	0xbe1c5a50	-0.15268826
215	0xbe8acb9d	-0.2710847
216	0xbcbc5dee	-0.022994008
217	0xbb8d9e8f	-0.00432188
218	0xbc61fa7f	-0.013792633
219	0xbc1234f4	-0.008923758
220	0xbdb7067e	-0.08936785
221	0xbdb2831a	-0.08716412
222	0xbe2b378b	-0.16720407
223	0xbcf57488	-0.029962793
224	0xbe718404	-0.23585516
225	0xbc81d208	-0.015847221
226	0xbdcbb2c9	-0.0994621
227	0xbe1bb73f	-0.15206622
228	0xbcd4232f	-0.025895683
229	0xbd151ab6	-0.036402427
230	0xbdabb1c7	-0.08383518
231	0xbc075c8f	-0.008261814
232	0x3d4e8bcb	0.050426286
233	0xbce91aea	-0.028455216
234	0x3d880972	0.066424266
235	0xbceb16a4	-0.02869732
236	0xbe12f699	-0.14351882
237	0x3dcf305f	0.10116648
238	0xbe2e19d6	-0.17002043
239	0xbdebeaee	-0.11519419
240	0xbd1000c7	-0.03515699
241	0xbd0fa3c6	-0.035068296
242	0x3c0a2120	0.008430749
243	0xbd65ba39	-0.0560858
244	0xbe0aed13	-0.13566999
245	0xbd7b3b03	-0.061335575
246	0xbe3a3e22	-0.18187764
247	0xbda8bcef	-0.08239161
248	0xbda61996	-0.08110349
249	0xbc951e6d	-0.018202985
250	0x3cf85b5d	0.030317003
251	0xbe24ea62	-0.16105035
252	0xbb3f7e17	-0.0029219443
253	0xbc5c73a5	-0.013455306
254	0xbed3071f	-0.4121637
255	0xbd84effa	-0.064910844

4.bias f4 [128]
0	0xbd2f32d4	-0.042773083
1	0xbecc03e2	-0.39846712
2	0x3c7118a3	0.0147153465
3	0xbdc30e35	-0.09524194
4	0xbdb5b24f	-0.088719
5	0x3e01de8d	0.12682553
6	0xbe0fe08f	-0.14050506
7	0xbdfb08c4	-0.12257531
8	0xbe06121d	-0.13092847
9	0xbe021e1d	-0.127068
10	0xbd4112f6	-0.047137223
11	0xbe6dfbbd	-0.23240562
12	0xbdb75cc7	-0.08953243
13	0xbd3b8b2a	-0.045787014
14	0xbca4f953	-0.020138418
15	0x3db17d56	0.08666484
16	0xbd10b6fd	-0.03533076
17	0xbcae138d	-0.021249557
18	0x3e03ba84	0.12864119
19	0x3ce00ee9	0.02735086
20	0x3eb1e8cf	0.3474793
21	0xbea7ae6d	-0.32750264
22	0x3e020fb6	0.12701306
23	0xbddce1aa	-0.107852295
24	0x39d42445	0.00040462814
25	0x3e07072f	0.13186334
26	0xbd850be1	-0.06496406
27	0x3c1e378f	0.009656801
28	0x3eb889ec	0.36042726
29	0xbd01191b	-0.031518083
30	0x3ec0579a	0.37566835
31	0xbe55e294	-0.20887214
32	0xbe31b62d	-0.17354651
33	0x3e7a62a4	0.24451691
34	0x3d680aa0	0.056650758
35	0xbdf4b4ef	-0.11948573
36	0xbe9b4cd0	-0.3033204
37	0xbe2157b1	-0.15756108
38	0x3e733808	0.23751843
39	0xbd7179c3	-0.05895401
40	0xbe1b36b3	-0.15157585
41	0xbc5b9fa4	-0.0134047605
42	0xbe6c1230	-0.23053813
43	0xbddcf671	-0.107891925
44	0xbe2fe7b4	-0.17178231
45	0xbddf3f5d	-0.109007575
46	0xbd9b16f1	-0.07572735
47	0x3ee9839d	0.45608225
48	0xbd5313af	-0.051532444
49	0x3d54ee59	0.05198512
50	0x3cdc0ef6	0.026862603
51	0xbe8f2a8a	-0.27962142
52	0xbe20117a	-0.15631667
53	0xbde5de15	-0.112239994
54	0xbe061b12	-0.13096264
55	0x3da844da	0.082162574
56	0x3cf685e6	0.030093145
57	0xbde6a28f	-0.11261474
58	0x3cd95619	0.026530312
59	0x3ec12399	0.3772247
60	0xbe04e7eb	-0.12979095
61	0xbd3ea024	-0.04653944
62	0x3e8faec8	0.28063035
63	0x3b97d917	0.0046340334
64	0xbddfe108	-0.10931593
65	0xbd610300	-0.0549345
66	0xbe50265a	-0.2032713
67	0x3ece0db7	0.4024484
68	0x3f5af36f	0.855277
69	0xbe0d3678	-0.1379031
70	0x3ee9d04c	0.4566673
71	0xbd412cab	-0.04716174
72	0x3ccf87a0	0.025333226
73	0xbdf4ff45	-0.11962751
74	0xbd646f65	-0.055770297
75	0xbe373d75	-0.17894538
76	0x3b08a7d5	0.0020851989
77	0x3cc6c394	0.02426318
78	0xbe74221b	-0.23841135
79	0xbd3a011b	-0.04541121
80	0xbddd12c6	-0.107945964
81	0xbe203e53	-0.15648775
82	0xbd1caa4c	-0.038248345
83	0xbe49059f	-0.1963105
84	0xbefaa704	-0.48955548
85	0xbe07e1a5	-0.1326967
86	0xbe75db3e	-0.24009416
87	0x3de6aadb	0.11263057
88	0xbd3b618b	-0.04574732
89	0x3e2ed067	0.17071687
90	0xbdd4673d	-0.10371254
91	0xbde8f212	-0.11374296
92	0x3dc2843e	0.094978794
93	0x3dafd0e3	0.08584764
94	0xbe1ed545	-0.15511043
95	0x3e8c920f	0.27455184
96	0xbdfa6bb5	-0.12227575
97	0x3c996511	0.01872495
98	0xbdb84f1a	-0.089994624
99	0xbd4b1923	-0.04958452
100	0xbe13d9d4	-0.14438564
101	0x3db21f9a	0.08697434
102	0xbe1b3ae4	-0.15159184
103	0xbe198c09	-0.14994825
104	0xbde40fdc	-0.111358374
105	0xbe1c48b3	-0.15262108
106	0x3d6e32c0	0.058153868
107	0x3c8ec06b	0.017425736
108	0xbde5099c	-0.111834735
109	0xbda89b87	-0.082327895
110	0x3e6218c9	0.22079767
111	0x3ecd745b	0.40127835
112	0xbdec2668	-0.11530763
113	0xbe43baf3	-0.19114284
114	0xbd88477a	-0.06654258
115	0xbe607b32	-0.21921995
116	0xbe68c4d1	-0.2273133
117	0xbd975a13	-0.07390227
118	0xbda0c1f6	-0.07849495
119	0xbc8ac95f	-0.016941724
120	0x3ef8e59a	0.48612672
121	0xbdfa7843	-0.12229969
122	0xbe12b14d	-0.14325447
123	0xbdfe7cf6	-0.12426178
124	0x3d205ec8	0.03915289
125	0xbcad7311	-0.021173032
126	0xbe822467	-0.25418398
127	0xbe4450c7	-0.19171439

6.weight f4 [32, 128]
0	0xbe757352	-0.23969772
1	0x3e33ef9b	0.17571871
2	0x3b6b27f0	0.003588196
3	0xbdb5e09c	-0.088807315
4	0x3d4db1f3	0.050218534
5	0xbb70bdaf	-0.0036734154
6	0x3d091dea	0.033475794
7	0xbddce59d	-0.10785983
8	0xbd1ba312	-0.037997313
9	0x3a042a64	0.0005041717
10	0x3d352004	0.044219986
11	0xbddb5ace	-0.10710679
12	0xbe81620f	-0.25270125
13	0xbdbcc21a	-0.092167094
14	0xbd95f902	-0.07322885
15	0xbe5a0e40	-0.21294498
16	0xbc8b695a	-0.017018009
17	0x3db10c84	0.08644965
18	0xbe3d2110	-0.18469644
19	0x3d71edf4	0.05906482
20	0xbe81b7fc	-0.2533568
21	0xbdb9b987	-0.0906859
22	0xbcb83962	-0.0224883
23	0xbd9fd291	-0.07803834
24	0x3d1fab7d	0.038981903
25	0x3d082a01	0.033243183
26	0x3e00cc41	0.12577917
27	0xbd8143c1	-0.06311751
28	0xbcccb04b	-0.024986407
29	0x3e0095eb	0.12557189
30	0xbe388629	-0.18019928
31	0xbd9f7362	-0.077856794
32	0x3da0adb7	0.078456335
33	0x3c88f355	0.016717592
34	0xbcb8d2b7	-0.022561414
35	0xbcf02c38	-0.02931796
36	0xbd9bd877	-0.07609647
37	0xbcbf2f0b	-0.023337862
38	0x3c95350e	0.018213775
39	0x3d4cce4d	0.05000143
40	0xbd96b055	-0.073578514
41	0x3daa8cb9	0.08327622
42	0xbe08210e	-0.1329386
43	0xbd2ce049	-0.042206082
44	0xbcf025b5	-0.029314855
45	0xbd74878f	-0.05969959
46	0xbe9f8087	-0.31152746
47	0xbe1a507e	-0.15069768
48	0xbd2dc76c	-0.04242651
49	0xbe881483	-0.2657815
50	0x3cba8fc0	0.022773623
51	0xbd90007a	-0.07031341
52	0xbc0a91fd	-0.008457658
53	0x3d6f09e5	0.058359046
54	0x3d41f22a	0.047350086
55	0xbd3f0dc0	-0.046643972
56	0xbda64820	-0.081192255
57	0xbd5cc155	-0.053895313
58	0xbda612ce	-0.081090555
59	0xbe7f41d3	-0.24927454
60	0x3d9b5033	0.07583656
61	0x3c42514e	0.011860205
62	0xbdee0fcb	-0.11624106
63	0xbcc6db4f	-0.024274496
64	0xbd4950d5	-0.049149353
65	0x3cc119f3	0.023571944
66	0x3d8b9d73	0.068171404
67	0xbdc73483	-0.09726813
68	0xbdadb8d0	-0.08482516
69	0xbc0c587e	-0.00856602
70	0xbe0741a7	-0.13208638
71	0x3d6744b5	0.05646201
72	0xbc51e098	-0.012809895
73	0xbd226b58	-0.039653152
74	0x3d5c6b7f	0.053813454
75	0x3c9a35df	0.018824516
76	0x3d81468c	0.06312284
77	0xbb9b05c7	-0.0047309133
78	0xbd6272cd	-0.055285264
79	0x3d9efef9	0.07763476
80	0xbe55b057	-0.2086805
81	0x3d5a956b	0.053365152
82	0xbe2d332d	-0.16914053
83	0xbe2a12ee	-0.16608784
84	0xbe011902	-0.12607196
85	0x3d9859cc	0.074390024
86	0x3e248806	0.16067514
87	0x3d52e7dc	0.05149065
88	0x3c4f41af	0.0126499375
89	0x3db1864c	0.08668193
90	0xbe448c5e	-0.19194171
91	0x3d9dcbcc	0.07704887
92	0xbe42b6f0	-0.19015098
93	0xbdeef7be	-0.11668347
94	0xbce8e866	-0.028431129
95	0x3d4b82e2	0.049685366
96	0x3d08fce6	0.033444308
97	0xbceb5367	-0.028726293
98	0xbdde3fc1	-0.10852004
99	0x3d53112d	0.051530052
100	0xbe291c13	-0.16514616
101	0x3d0cd7fd	0.03438567
102	0xbe05bd8e	-0.1306059
103	0xbda4b6df	-0.080426924
104	0x3d134a67	0.035959627
105	0xbd9de410	-0.07709515
106	0x3da8f040	0.08248949
107	0xbdb9dc95	-0.09075276
108	0xbde86c22	-0.1134875
109	0x3ce04e81	0.027381184
110	0xbe24b2e5	-0.16083868
111	0xbd378fdb	-0.044814926
112	0x3cd641fd	0.026154513
113	0xbd955f84	-0.07293609
114	0xbd9e3d46	-0.07726531
115	0xbcd30d3d	-0.025763148
116	0xbbdda474	-0.006763989
117	0x3c99b9e1	0.018765392
118	0xbd790f0c	-0.060805365
119	0xbda910e7	-0.08255177
120	0xbda01b1e	-0.07817672
121	0x3c98c066	0.01864643
122	0xbca0b856	-0.019619148
123	0xbe1b705c	-0.1517958
124	0xbdb2a0b9	-0.08722062
125	0xbdc21f1c	-0.0947859
126	0xbb6917cf	-0.003556717
127	0x3c8bedd8	0.017081186
128	0x3ba7dc37	0.005122687
129	0x3da0de89	0.07854945
130	0xbd428fd9	-0.047500465
131	0xbd7b556f	-0.061360773
132	0x3cf0ef94	0.029411115
133	0xbe0419ab	-0.12900417
134	0x3d99651d	0.07489989
135	0x3d190ac3	0.03736378
136	0xbd193fcd	-0.03741436
137	0xbe1bd5aa	-0.15218225
138	0xbcee84cf	-0.029116062
139	0x3e3c6290	0.18396974
140	0x3ea11468	0.3146088
141	0x3bf6bae0	0.0075296015
142	0xbd95f841	-0.07322741
143	0x3e13b4c7	0.1442443
144	0x3d87ae26	0.06625013
145	0x3d3fe708	0.046851188
146	0xbe8f88fb	-0.28034195
147	0xbea47b25	-0.32125202
148	0xbeda5e67	-0.42650148
149	0x3e926321	0.28591254
150	0xbcb2cf4c	-0.021827362
151	0xbcc547a8	-0.02408202
152	0xbd80310d	-0.06259356
153	0x3d924615	0.07142273
154	0x3d01b1da	0.031663753
155	0x3dc5e9d8	0.09663743
156	0x3df68dd0	0.12038767
157	0xbe34961d	-0.17635389
158	0xbe2da97d	-0.16959186
159	0x3c131776	0.0089777615
160	0xbce0c845	-0.027439246
161	0xbdfb082d	-0.12257419
162	0xbd55eeee	-0.052229814
163	0x3c9f99d3	0.019482529
164	0x3db7d4b6	0.08976118
165	0xbbaae128	-0.005214829
166	0x3de3ed59	0.11129255
167	0x3ca74c27	0.020422054
168	0xbde0e689	-0.10981471
169	0xbce7db3d	-0.028302783
170	0x3f010f45	0.50413924
171	0x3d8284aa	0.0637296
172	0x3dcec6da	0.10096522
173	0x3d3a5955	0.04549535
174	0x3e81e837	0.25372478
175	0xbeebeb14	-0.46077788
176	0x3e7fc087	0.24975787
177	0xbbd2bf96	-0.00643153
178	0x3d0155a0	0.0315758
179	0x3ea236cd	0.31682435
180	0x3e8153c1	0.25259212
181	0xbd8d505c	-0.06900093
182	0x3d8dd0a7	0.06924563
183	0xbd97e921	-0.07417513
184	0xbda216bf	-0.07914495
185	0x3cd6f54b	0.026240012
186	0x3cf7c457	0.03024499
187	0xbd956956	-0.07295482
188	0x3cdfe9e4	0.027333207
189	0xbd19a3cd	-0.03750973
190	0x3be6620b	0.0070307306
191	0xbeac2181	-0.3361931
192	0xbe10835c	-0.1411261
193	0x3cf0cff7	0.02939604
194	0xbd9ea45c	-0.07746193
195	0xbed8ec3e	-0.42367738
196	0x3e67a382	0.22620967
197	0xbd196397	-0.037448492
198	0xbeffd7c8	-0.49969316
199	0x3dbf3bcc	0.09337577
200	0xbc8124d9	-0.01576464
201	0xbda49b11	-0.08037389
202	0xbd37683f	-0.04477715
203	0x3bd33889	0.0064459485
204	0xbcd718e2	-0.026256982
205	0xbe7e175b	-0.24813597
206	0x3ea37063	0.31921682
207	0xbdaaa6ca	-0.08332594
208	0x3cb7af26	0.022422384
209	0xbb3b2a97	-0.002855932
210	0xbe80c524	-0.25150406
211	0x3d781423	0.06056608
212	0xbdf91181	-0.12161542
213	0xbd0adbc8	-0.033901006
214	0x3e99fe3f	0.30076787
215	0x3d463ae1	0.048395995
216	0x3ce3c6d5	0.027804771
217	0xbd7e984d	-0.062156964
218	0x3db3cd44	0.08779386
219	0xbc91f56d	-0.017817223
220	0x3e17f001	0.14837648
221	0x3d392b9a	0.045207597
222	0x3cdddeb9	0.027083742
223	0x3cd51116	0.026009124
224	0x3cf1c8c1	0.029514672
225	0xbcac027e	-0.020997282
226	0x3ebc7d51	0.3681436
227	0xbceb148c	-0.028696321
228	0x3e4c75fa	0.1996688
229	0x3d15cce9	0.03657237
230	0x3e8d42a4	0.27589905
231	0x3e29749d	0.1654839
232	0x3bfaa1f8	0.0076487027
233	0x3c7ed563	0.015553805
234	0x3bbebdd8	0.005820971
235	0x3c0fac3b	0.00876909
236	0x3d5b2f25	0.053511757
237	0xbcf9f91e	-0.030514296
238	0x3e91da36	0.28486794
239	0x3d193d2e	0.03741186
240	0x3d5dd6a7	0.054159787
241	0x3e2e4074	0.17016774
242	0x3da4c02d	0.08044467
243	0xbda33fd2	-0.07971157
244	0x3e39bd0e	0.18138525
245	0xbcaa94b0	-0.020822853
246	0x3da6771f	0.08128189
247	0xbcdcf27b	-0.026971092
248	0x3dbdcc23	0.092674516
249	0x3d2d86d2	0.042364903
250	0x3d47fdd1	0.048826043
251	0xbdb7776e	-0.08958326
252	0xbe61b9c3	-0.22043519
253	0xbee59e5e	-0.44847387
254	0x3c7bb474	0.015362848
255	0xbd0a724e	-0.033800416

6.bias f4 [32]
0	0xbd9133bc	-0.07089946
1	0x3f2b2c87	0.6686482
2	0x3e0cb549	0.1374103
3	0x3f27d1e9	0.6555467
4	0xbec5ae51	-0.38609555
5	0x3dbbf948	0.09178406
6	0x3d3ded0d	0.046368647
7	0xbe77ae52	-0.24187592
8	0xbf222ec3	-0.633526
9	0xbe57e02a	-0.21081606
10	0x3f0fc09d	0.5615328
11	0xbe0d8acc	-0.13822478
12	0x3f075dbe	0.52877414
13	0xbe40f98a	-0.18845192
14	0xbea51185	-0.3223993
15	0xbf3aada2	-0.7292119
16	0x3eeccf0e	0.4625172
17	0xbf5f2bf4	-0.8717644
18	0x3f135734	0.57554936
19	0x3e0f95c8	0.14021981
20	0xbe1d68e0	-0.15372038
21	0x3e51467d	0.20437045
22	0xbda5cb1e	-0.08095382
23	0x3e84f598	0.25968623
24	0x3e8e7662	0.27824694
25	0x3f3333d4	0.7000096
26	0x3f0c8192	0.5488521
27	0xbe32bdb5	-0.1745518
28	0xbf27613d	-0.6538275
29	0x3e98d6d0	0.2985139
30	0xbe748b03	-0.23881154
31	0xbdff8639	-0.12476773

8.weight f4 [1, 32]
0	0x3c2d5718	0.010579847
1	0x3d9eebc9	0.07759816
2	0x3de0757f	0.109599106
3	0xbe28c43e	-0.1648111
4	0x3d890a4b	0.06691416
5	0xbe5500eb	-0.20801131
6	0x3b0584be	0.002037331
7	0xbc192fdf	-0.009349792
8	0x3dcf0605	0.1010857
9	0x3c34f619	0.011045002
10	0xbdf395ea	-0.11893828
11	0xbde45bed	-0.11150346
12	0xbdb180a9	-0.08667118
13	0x3dd858d1	0.105638154
14	0x3e6d6198	0.2318176
15	0x3dd6c2c1	0.10486365
16	0xbdce0561	-0.1005962
17	0x3e823175	0.25428358
18	0xbe2b2154	-0.16711932
19	0xbde5a0fa	-0.112123445
20	0x3ba51ae2	0.005038605
21	0x3da520da	0.080629066
22	0xbda39373	-0.07987108
23	0xbdee2ae9	-0.11629278
24	0xbd911288	-0.07083613
25	0x3de9ece2	0.11422135
26	0xbdab1c21	-0.083549745
27	0x3b298430	0.0025866143
28	0x3e100fe5	0.14068563
29	0xbe395f46	-0.1810275
30	0x3b4fc041	0.0031700286
31	0xbcb1b4f5	-0.021692732
