project_data/Pytorch-Models/cnsmpo-model/Archive/cnsmpo_model_before_relu.pt (torch_old, 485938 bytes, 13 tensors)

0.weight f4 [256, 300]
00000000: f130 d43d c736 523e f9d1 5abe 048d 153d
00000010: 7306 853d 7a09 60be 4965 483c d311 803d
00000020: 1995 183e f0b0 abbd 0b41 a23d a712 ffbd
00000030: 55fb 17be 55e3 393b f85b 8138 6168 0abe
00000040: 7d85 9bbd d3b7 c4bb 5004 623d 7a3c 9abd
00000050: c106 1d3d b4b9 95bd cac0 7fbd 91f9 00be
00000060: b6c7 6bbc 7ca4 52bd 7ced eb3d 4ea2 41bd
00000070: d26e 00be 1bdf 373e e0c9 bbbb 34a7 32be
00000080: a4bb c73c b6c1 b33d 25d2 6ebc 7c3a 17bc
00000090: 7e62 50bd 8746 fabd f5b5 02bd 874f f43c
000000a0: ae48 073e aef5 eb3d 49eb d43d b1dd 763d
000000b0: 026a 303e 4a53 953c 30ca f1bc d843 8cbd
000000c0: be55 f03b 9363 a23d 6fdb 9bbd be65 1c3d
000000d0: 4266 97bd 300f 9bbb 5886 b73d 4ce1 c63c
000000e0: dc05 983d c761 803d a5a1 193c 75f1 b4bd
000000f0: 5503 0fbe 0b3f 08be e8b4 11bc 29d0 dbbb
00000100: 8d14 cdbd 87e3 4c3d edca 8abb ae5b 113e
00000110: ea4b 05bd 2525 843d de65 e43d 995f abbb
00000120: 296a 80bc c594 fbbb 2c5e 4c3c 575a c53d
00000130: f2f3 e0bd 0bfa 81bc a803 183d 6d61 06bc
00000140: f905 59be 9a7c 583c b1c4 9a3d bf97 5d3d
00000150: d760 163d 07fa 17bd d447 62bc 45cc cb3d
00000160: 8978 23be 5e43 2cbe 2f94 d23d 8742 3e3c
00000170: be6d 2dbd b9b2 443e 3afe 68bc 270a 9cbe
00000180: 45c6 f93d fb81 463b f430 253d 25d0 703c
00000190: 0ff4 6c3a 4a54 f6bd 73be 0cbd c25e 243c
000001a0: 4fcc 17be 5290 c6bc 04b4 913d 97b5 b4bd
000001b0: 08b8 5d3d 577d c7bd c0c5 a1bd 2630 893c
000001c0: 49d0 b6bc f02d 6cbc 3b2d 743e 8f0d fb3d
000001d0: c1c3 953d cb71 80bd d284 1fbe 845a 3d3d
000001e0: 9789 803d 9fb1 a0bd d18b 693d 9947 033e
000001f0: 69b3 163d 3401 113b e93c ccbd 03fc 16be
00000200: 31bc 83bd 9833 413e 19f3 95bd 95ea d43d
00000210: 2402 283d df72 8fbd 1faf 50be 7d9f 41bc
00000220: 653d a23d a20b 5ebe 3366 0a3d 2ef6 2f3e
00000230: 6581 66bd 654c 4fbb 79d6 053e 2df2 0c3d
00000240: 8b56 79bc 9f40 e7bc 01c6 be3c 8a55 1bbd
00000250: 443d 1fbb 5b77 243b 642e 913d 665f b43c
00000260: d933 a5bc 6586 c03d 675f 7c3c 1a89 083e
00000270: 3129 cabd 1cfa afbd ef7f a3bd df83 5b3d
00000280: ba55 ce3d 9623 e1bd 7af5 0fbd bbbb 48be
00000290: 1c46 f2bc 4a3a c93d 276d afbe 4f13 173d
000002a0: e18d 8bbe 738f 163d e5da ae3c 4d5c bbbd
000002b0: 65aa 403d 3b19 cebd e2a8 b53d c312 603d
000002c0: 426f f3bb 0cea 54be c6ab ff3c fef2 793c
000002d0: c97c 2d3c 059e 94ba 84f5 9d3d bee2 983b
000002e0: 29f8 1dbe 839d 3ebe ceaa a63d fea2 40bd
000002f0: 7a76 943c 7587 313d 9e27 173e 3c89 f33d
00000300: 3c95 cc3c 761d 7b3d 76a3 4abe 22f1 aa3d
00000310: cfa7 5b3d b244 71bd 10a3 58bd 1e5f 13bd
00000320: f0ec 82bd 4014 4bbe 62a2 eebd 8516 ac3c
00000330: dfbc 1c3d 186f 43bd f6ed b5bd fe75 10be
00000340: 17f3 2c3b 00af ca3c 627e 323d 70b3 97bd
00000350: fdb4 853d 26b1 84bd e76b 77be ba43 b0bd
00000360: 85e1 96bc c2fe 6c3c 82ba 03bd 4a60 7e3d
00000370: 1325 6d3e 7ef8 a7bd 0d56 e23d 6ae0 8f3d
00000380: e380 4bbc 82bd 9e39 7b75 eebd cecb 27be
00000390: 4781 42bd 43c4 3ebc 3f5e 70bd 2fbf 033e
000003a0: 2cfa cfbd c572 9d3b c823 46be 83c3 c0bd
000003b0: ec4e 9c3e 85f9 d23d ad45 5b3d 97c5 1cbd
000003c0: 1738 03be 88ca 0cbe d568 7b3c 26c6 4bbe
000003d0: 7488 113e 4a36 2bbd 2d95 0b3d 164a 20bd
000003e0: 7669 9b3d 745d 963d 839f 49bc cb3a 06be
000003f0: 04af 3bbd e6f6 9e3d c546 b1bd efe1 19bd
0.10360897 0.20528708 -0.2136916 0.036511436 0.06495371 -0.21878615 0.0122311795 0.062534
0.14900626 -0.083833575 0.07922562 -0.124547295 -0.1484197 0.002836426 6.16833e-05 -0.1351638
-0.0759382 -0.006003359 0.055179894 -0.07531066 0.03833652 -0.07310811 -0.062439717 -0.12595202
-0.0143908765 -0.051426396 0.11519906 -0.047273926 -0.12542275 0.17956202 -0.0057308525 -0.17446595
0.024381466 0.08777182 -0.01457647 -0.009230252 -0.05087518 -0.12220483 -0.03191181 0.029823078
0.13211319 0.11521469 0.103964396 0.060270015 0.17227939 0.018228192 -0.029515356 -0.06848878
0.00733444 0.079291485 -0.07610213 0.038182966 -0.07392551 -0.004732035 0.08961171 0.024277352
0.074229926 0.062686495 0.009376918 -0.08835117 -0.13966115 -0.13305299 -0.008893229 -0.0067081642
-0.100136854 0.050021674 -0.0042356164 0.1419513 -0.0325431 0.06452397 0.11152242 -0.005229902
-0.015675621 -0.007677647 0.012473624 0.096363716 -0.10984029 -0.0158663 0.037112862 -0.008201939
-0.21193685 0.013213301 0.07557047 0.054099794 0.036713447 -0.03710368 -0.0138110705 0.09951071
-0.1596395 -0.16822574 0.1028217 0.011612541 -0.042340986 0.19208802 -0.014220769 -0.30476496
0.1219602 0.0030289877 0.04032989 0.014698063 0.0009039053 -0.120277956 -0.034361314 0.010032358
-0.14824031 -0.02423874 0.071144134 -0.08823698 0.054130584 -0.097407036 -0.07899046 0.016746592
-0.022316115 -0.014415249 0.23845379 0.122584455 0.07312728 -0.06271704 -0.1557801 0.0462289
0.06276243 -0.078463785 0.057018105 0.12820281 0.036792193 0.0022125961 -0.09972555 -0.14744572
-0.06432379 0.18867338 -0.07321758 0.103963055 0.041017666 -0.07004332 -0.20379303 -0.01181781
0.07921866 -0.21684125 0.03378887 0.17183754 -0.056275744 -0.0031631228 0.13070096 0.034410644
-0.015218387 -0.028229056 0.023287775 -0.037923373 -0.0024297992 0.0025095555 0.070889264 0.022018146
-0.020166324 0.09400634 0.015403605 0.1333355 -0.09871138 -0.085926265 -0.07983386 0.05359256
0.10074945 -0.109931156 -0.035146214 -0.19602863 -0.029574446 0.09825571 -0.34262964 0.03688365
-0.27256683 0.036757898 0.021344611 -0.09148464 0.0470375 -0.10063406 0.088701025 0.054705393
-0.0074290344 -0.20792407 0.031209838 0.015255688 0.010588833 -0.0011338597 0.07712844 0.0046657017
-0.15426697 -0.18614773 0.08138047 -0.04703044 0.0181229 0.043342073 0.14761207 0.1189141
0.024973504 0.061307393 -0.19788918 0.08346774 0.05362683 -0.058903404 -0.052889884 -0.035979383
-0.063928485 -0.19831944 -0.11652066 0.021006832 0.03826606 -0.04771337 -0.08883278 -0.1410751
0.002639001 0.02474165 0.04357756 -0.07407272 0.065286614 -0.06479101 -0.24162255 -0.08606668
-0.018418083 0.014465036 -0.03216029 0.062103547 0.23158674 -0.08201693 0.11051569 0.070252255
-0.012420866 0.00030277303 -0.11643501 -0.16386339 -0.04748657 -0.011643472 -0.05868363 0.128659
-0.101551384 0.0048049414 -0.19349587 -0.09412291 0.30528963 0.10301498 0.053533245 -0.038274374
-0.12814365 -0.13749135 0.015344818 -0.19899806 0.14212209 -0.04179982 0.034077812 -0.039133154
0.075884745 0.073420435 -0.012306097 -0.13108365 -0.045821205 0.07761936 -0.08656076 -0.037568983

0.bias f4 [256]
00000000: bcfe 8cbe 36b5 803f 8fb8 09bf 172f ebbd
00000010: 1c1b 013f 84aa 07bf 7189 e6be 71f4 43bf
00000020: 5b43 ebbc ee28 0f3f 997f 513e 77df f7be
00000030: abb9 fdbe f9c6 b9be a37a 083f 87f4 d1be
00000040: f473 b7bd d4ab 033e b90b 2a3f 4e17 48be
00000050: 54bf 123d 9946 3abe eef2 7f3c 1f0d 3a3e
00000060: 7506 1dbd 5b31 6d3d 12eb 46be 9c42 6ebf
00000070: 0db2 f83e d8c3 84be d773 6cbf 791a 2ebf
00000080: 0a3c a33d 6c36 303f 5708 1b3d 1f71 6b3e
00000090: d604 c63e 985c 383e 5a7e 94be ddd4 b33d
000000a0: 4b00 29bf 7f86 af3d 2bf8 cfbe 0207 a83e
000000b0: 74e0 e43e 2c15 9ebd 4a95 ae3c 6b61 233e
000000c0: 4bea cfbe e8fb 653e 32be 273e 98c7 8c3e
000000d0: 4d07 913e 572d 4d3f 4c97 d63b cbb4 083d
000000e0: 1add 8f3e cfe4 78be c32e 64be c364 823e
000000f0: 6d90 29bf 0a0a 563e e8e2 aabe 8113 373e
00000100: 6997 be3d 5184 f4bd a392 76be e05b d23e
00000110: dd57 36bc 7abb 293d efc2 433e 98d0 66bf
00000120: e5ee f2be bd1e e1be 5e7d 96be 4e14 a43e
00000130: b8b1 a93e ec8e ecbe 4609 b03e f675 7abe
00000140: 78a6 fb3d fe39 d83e 06bd 1e3f f843 95be
00000150: 2fa2 1cbf c134 c93d 59b5 ecbe dd18 90be
00000160: 5bc6 073f f62e 5fbf 6217 f7bd 4107 6dbf
00000170: 54f4 12bf 3fc2 b63e 9aeb dabe 3553 b1be
00000180: 140d fbbd 40a6 2b3c e796 50bf 8216 afbe
00000190: 1c16 65bf 17ac eabd 7a81 a8bd 9a41 20be
000001a0: 5c75 85bd 3e1b b8bd 414d 0ebe 0bae 063e
000001b0: faa2 a7be e68f 153f fae2 58be 1738 ffbd
000001c0: 2ba2 593f cfa6 3d3e 523d f63d 1515 133f
000001d0: b223 6ebe 70f1 aa3e 112a 0a3e bdf5 51be
000001e0: b89c 8dbe ee54 5b3e 58e5 97be 6465 97be
000001f0: 8eec 973e 05d6 a6be 736e 0dbf fe1d c5be
00000200: 4807 8a3e 3911 6c3f 5cfc 013f afc5 153e
00000210: fbb4 223e 9014 6dbf 2773 cc3d e1d1 513e
00000220: 3b22 693f bb31 1c3f bc1b 73bf 86b8 22bb
00000230: 37e2 653e c4f3 4a3e 40af 9dbe e5d6 84bc
00000240: c957 97bd 15e2 65bf dc82 db3b 4203 4a3f
00000250: b3f0 c3be 9e1f 4dbe 8386 7bbe dfdd 9fbe
00000260: 0b81 4fbe 7053 1d3f b983 52bf 5174 36bd
00000270: a211 12bf ba37 ac3e ffbf f73e 222e e23d
00000280: e259 76bf b424 f2be b61b 1dbc ff95 6bbe
00000290: 701f 263f 7a5d d2be b3b4 3cbf 2ad0 64be
000002a0: c02b e33e 10e4 dc3e 5519 9b3e 12e8 bfbe
000002b0: 433f 073e 3bac debe b1cc 2b3f 555c 39bf
000002c0: b959 0abe abe0 ae3e bd76 4abd f015 5dbe
000002d0: 3fc0 653e 822c f93c 47ef 0bbe 457c 3cbf
000002e0: 937e a43e 69ad 99be 2b00 52bf d754 72be
000002f0: 21c9 42bf df89 453f 7942 8a3e 6640 acbd
00000300: a961 06be 2ad6 8bbe 2df6 ec3e 5b66 123f
00000310: 793e 033f 0378 cf3d 83cb 6e3f 0ef2 93be
00000320: 9210 8d3e 0c01 c7be 9684 623e 7d3e efbe
00000330: fe5f 543f 188a 94be 3fbb be3e 12cc 5abe
00000340: 0437 09be 7c0e 14bf 6f31 83bd bbea 4abf
00000350: 36f5 05bf e7a3 1ebf 4f9d 2bbe dacd 143f
00000360: 368c 3c3f f1c3 52be f321 a9be d2a7 1d3f
00000370: 6a00 143f 44c7 ddbe 7002 0fbf 5709 a93c
00000380: 5050 0dbf 4499 6e3e 6956 28bf 71e6 b2bd
00000390: 07f9 8c3d a1d2 873e 732e 203f 1f90 6abe
000003a0: 3a32 3a3d ab0c 473d 01c6 41be fdf9 bc3e
000003b0: 419d 31bd 3226 b6be 0771 c63d 03d6 183e
000003c0: 94a5 213f 2d86 aa3e 1af7 41be 0efd 8c3d
000003d0: dc0c 533f 2233 163f abc1 fbbe c7e3 a63e
000003e0: fb12 c8bd e205 903d 3f40 64be e434 42bf
000003f0: e887 31ba 91f1 48be 0332 2ebe 504d 72bd
-0.27538097 1.0055301 -0.5379724 -0.11483591 0.5043199 -0.5299456 -0.45026734 -0.76544863
-0.028718641 0.5592183 0.20458831 -0.48412678 -0.49555716 -0.36284617 0.5331213 -0.41006872
-0.08957663 0.12858516 0.6642414 -0.1954014 0.035826996 -0.18190993 0.015621884 0.18169068
-0.038336236 0.057908397 -0.1942561 -0.9307039 0.48573342 -0.25930667 -0.9236426 -0.68009144
0.07970436 0.6883304 0.03784975 0.22992371 0.38675565 0.18004072 -0.2900265 0.08780835
-0.6601607 0.08570575 -0.40619025 0.32817847 0.44702494 -0.07718882 0.021311421 0.15955131
-0.4060844 0.22459376 0.16381148 0.27496028 0.28325883 0.8014731 0.0065487977 0.033375543
0.28098375 -0.24306034 -0.22283463 0.254675 -0.66236 0.20902267 -0.3337624 0.17878534
0.09306223 -0.119393 -0.24079375 0.4108572 -0.011129347 0.041438557 0.1911733 -0.9016204
-0.47447887 -0.43968764 -0.29392523 0.3204674 0.331434 -0.4620279 0.34382075 -0.24459061
0.12287611 0.42231745 0.62007177 -0.2915342 -0.6118497 0.09824515 -0.46232107 -0.2814397
0.5303704 -0.8718103 -0.12065007 -0.92589194 -0.57404065 0.35695073 -0.42757875 -0.34633794
-0.12258354 0.010476649 -0.8148026 -0.3419686 -0.8948686 -0.11458605 -0.08227821 -0.15650025
-0.06516525 -0.08989571 -0.13896658 0.1315233 -0.3274153 0.58422697 -0.21180335 -0.1246187
0.85013074 0.18520664 0.12023415 0.57454044 -0.23255804 0.33387327 0.1349261 -0.20503898
-0.2765863 0.21419117 -0.29667163 -0.29569542 0.29672664 -0.3258516 -0.5524666 -0.38499445
0.2695868 0.9221378 0.50775695 0.14626192 0.15889351 -0.926095 0.09982901 0.20490219
0.91067857 0.6101338 -0.94964194 -0.0024829223 0.22449575 0.19819552 -0.30797768 -0.016215751
-0.073897906 -0.897981 0.0066989493 0.7891122 -0.38269576 -0.20031592 -0.24563031 -0.31223962
-0.2026407 0.6145544 -0.8223224 -0.04454452 -0.57058156 0.33636266 0.4838867 0.110439554
-0.962309 -0.47293627 -0.009589126 -0.23006438 0.6489172 -0.41086942 -0.73713225 -0.22345033
0.44369316 0.43142748 0.30292764 -0.37481743 0.13207726 -0.43490776 0.6710921 -0.7240651
-0.13510789 0.34155783 -0.049429644 -0.215904 0.22436617 0.03041673 -0.13665496 -0.7362712
0.32127818 -0.30015114 -0.82031506 -0.23665176 -0.7608815 0.771635 0.2700384 -0.084107205
-0.13123192 -0.27311832 0.46281567 0.5718743 0.512672 0.10130312 0.93279284 -0.2889561
0.27551705 -0.38867986 0.2212089 -0.46727362 0.8295897 -0.29011607 0.37252232 -0.21366909
-0.13399893 -0.578346 -0.06405913 -0.7926442 -0.5232729 -0.61968845 -0.16759227 0.58126605
0.73651445 -0.20582558 -0.33033714 0.615842 0.5781313 -0.4331609 -0.55863094 0.020634336
-0.5520067 0.23300654 -0.6575685 -0.087353595 0.06883436 0.26527885 0.62570876 -0.2290654
0.045458056 0.048596065 -0.18923189 0.36909476 -0.04336286 -0.35576016 0.09689527 0.14925389
0.6314328 0.33305493 -0.18941918 0.06884204 0.82441497 0.5867177 -0.49171194 0.32595655
-0.09769245 0.07032372 -0.22290133 -0.75861955 -0.0006772266 -0.196234 -0.17011265 -0.059155762

1.weight f4 [128, 256]
00000000: efce 8dbd 13bd 813c ae18 e53c 7f81 903c
00000010: faf2 033c 63ca 86bb 27d3 c8bb 09f2 afbc
00000020: 36bd adbc 1426 1c3b 31ff 8f3b 2008 c3bc
00000030: 90db 53bb 5ca2 bf3b f245 37bc 76f9 bdbb
00000040: 7e98 a63c 35d9 993c 165e a63c 79e4 8abc
00000050: 530e 903c b012 02bd 6a3f 533c 084a 47bc
00000060: c0be 10bc ab68 983c 0748 623d 820d e73b
00000070: b8a4 ed3b 849e cfbc 917f 08bd a353 33bd
00000080: 9088 953c f57d 693b 9ac6 22bc 472d 0bbd
00000090: 809c debb 9556 97bc 4b60 703c 0c5f c33b
000000a0: 57c9 98bc 256e 1f3c 54c3 fdbb c86b 22bb
000000b0: e979 0f3c e279 713b 9f88 7bbd 64f0 4f3c
000000c0: 8b6a 843c 96a6 aa3c cda9 9838 6d62 223c
000000d0: 065a 883c d76d 523c eee0 e73a 00b0 3b3c
000000e0: a745 abbc 37dc 2abd 4c58 223c a6ef 8c3c
000000f0: b1e3 77bd 6b99 87bc 58ce 8a3c c42d 1bba
00000100: b284 0cbd de43 da39 d934 da3c cc37 24bd
00000110: 0c7d a63c 2ad0 c93c 79ed 08bd b17d 5cbc
00000120: c57c 02bc edfa 76bc bdc9 613d 3d60 113d
00000130: 7e01 1a3c d629 af3c acbf e83a d37e c33c
00000140: ddeb 563d 898e 813b 8baf 0dbb 162e f8bc
00000150: fbe7 413d 3506 743c 9d89 84bc 5b31 11bd
00000160: 1734 63bc 2461 a93c e854 01bd 0132 f9bc
00000170: e655 d73b 109b 86bc 52bb a5bc e835 b3bc
00000180: 141b f6bc 6e6c 1f3c 14d3 ce3c 11a3 bc3c
00000190: 604b 193d 6f3e 283a 6706 203d b54e 0f3d
000001a0: a530 cdbc 65b2 0a3b 7beb cb3c 15e2 f9bc
000001b0: 1596 4fbc cbf6 98bd b0e0 453c d1f4 ca3b
000001c0: ac14 d0bc 2571 8a3c 3c50 f63b 7df2 e13b
000001d0: 2fdf bd3b ac6a 41bc 81a1 52bd 0e9c fe3c
000001e0: fb38 1c3d 33d2 603b 0bce f6bb a7d1 173b
000001f0: d296 2abc 0e2f 28bc 1a6f dcbb 8a6f 03bc
00000200: 1e45 373d 58ee cebc 968c bfbc 4a38 ccbc
00000210: bd61 acbc 63a1 6d3c e2a8 32bd e988 923b
00000220: 80bf fbbc 555f 81ba 488f 04bd c388 aabb
00000230: 618c d7ba 1375 5b3c c8fc f63c 1aa2 f6bb
00000240: 1aec a8bc a44a c23c afa1 24bc ce0d 0a3c
00000250: 18d4 df3b 50f8 2cbc fe67 cabc fd09 35b8
00000260: e8ad e53c 85df 10bd 4f80 5dbd 3521 cf3c
00000270: b0e2 42bc 3855 24bb 9ba8 14bd 3286 683c
00000280: 307e 93bc ca1e 7bbb c46f 4fbc 8c39 b3bc
00000290: 20c2 8fbc 83e3 5d3c 054a 743b aaa9 0c3d
000002a0: 5152 c7ba 4d71 8938 1e33 0abd a81a c1bb
000002b0: 4821 923a 6c1d 4c3d a7f2 2cbd ec32 733d
000002c0: 2e30 a2bc a326 94bc 850b dbbb c8c9 2a3d
000002d0: 1e04 40bc 9e08 6838 6b01 073d b077 18bc
000002e0: d8ab dd3b 9da6 60bc ffa8 703c 7377 44bc
000002f0: 5c52 eb3c 0e1e e63c 81db 87bc 4726 0f3b
00000300: 21da 9ebb bf0a 22bd a597 30bb 8263 413c
00000310: f68c 143c ee0a b53b e99f 9eba d534 63bc
00000320: e05c ad3c a87e 1c3d 2c1f a93c 5985 37bc
00000330: 28a3 4cbb 3bd8 0fbd 63b8 953d 8ab6 2b3b
00000340: 31dc 0d3c 8409 c739 a6e1 e73c e7e5 bf3b
00000350: 56b0 d33c 03d8 eb3c 19ac 0a3d 08f5 1abd
00000360: 1e11 b6bc 4b94 45bc 93c6 023c 90d6 acbc
00000370: d997 90bc ed07 82bc 48a9 5a3b b2d2 f0bc
00000380: 53d6 86bb 62b7 a53c 7c68 853c 668b efbb
00000390: 5261 aa3c 1995 c2bc 96de b33c 6c05 403c
000003a0: 6df4 4bbd ccb0 a03c 7d36 c03b ce21 0dbd
000003b0: a916 07bc 1737 3d3c d8c2 95bc 0fb4 8a3c
000003c0: e5dc 84bb 7c72 63bc 70dc 1e3b cdc4 43bc
000003d0: fad9 323c 7750 12bd 56e0 723c 6787 a23b
000003e0: 446d 25bc f5bb febc 4f5b e9bb a5da b63c
000003f0: 354f 153b 6ad5 803c 6502 073c 9ede 9f3c
-0.06924235 0.015837228 0.02796587 0.017639874 0.008053536 -0.004113482 -0.006128687 -0.021477716
-0.021208387 0.0023826407 0.004394435 -0.023807585 -0.0032326914 0.005848212 -0.01118611 -0.0057975603
0.020336386 0.01878033 0.020308536 -0.016954647 0.017584955 -0.031756103 0.012893537 -0.0121636465
-0.008834541 0.018604597 0.055244472 0.007051171 0.007252302 -0.02534414 -0.03332478 -0.043780934
0.018253595 0.0035628055 -0.009935046 -0.033978727 -0.0067935586 -0.018473903 0.0146713955 0.005962258
-0.018650694 0.00973085 -0.007744232 -0.002478348 0.008757093 0.003684633 -0.06140959 0.012691591
0.016164085 0.020831387 7.279553e-05 0.009911162 0.016644489 0.012843571 0.0017690936 0.011455536
-0.020907236 -0.04171392 0.009908747 0.017204117 -0.060519878 -0.016552648 0.016944095 -0.00059196004
-0.034306236 0.00041630765 0.026636528 -0.040092275 0.020323299 0.024635393 -0.033429597 -0.013457702
-0.007964318 -0.015074474 0.055124033 0.03549217 0.00939977 0.021382254 0.0017757318 0.023864185
0.05247103 0.003953759 -0.0021619524 -0.030295413 0.047340374 0.014894058 -0.0161789 -0.03544746
-0.0138674 0.020676203 -0.031575114 -0.030419352 0.006571519 -0.016431361 -0.020230923 -0.02187629
-0.030042209 0.0097304415 0.025247134 0.023026975 0.0374254 0.0006417995 0.039068606 0.03498717
-0.02504761 0.002116346 0.02489256 -0.030503312 -0.01267006 -0.07468947 0.012077495 0.006193735
-0.025400482 0.016899655 0.007516889 0.006895362 0.005794428 -0.011805218 -0.051423553 0.031080272
0.03814028 0.0034304976 -0.0075318865 0.0023165734 -0.010411935 -0.010265125 -0.0067271115 -0.008022198
0.04474365 -0.025260136 -0.023382466 -0.024929184 -0.021042699 0.01450381 -0.04361809 0.0044718874
-0.030730963 -0.000987033 -0.032363206 -0.0052042915 -0.0016445034 0.013394612 0.030149832 -0.007526648
-0.020620394 0.023717232 -0.010048314 0.008426143 0.0068307035 -0.010557249 -0.02470779 -4.3163065e-05
0.028037027 -0.035369415 -0.054077443 0.025284389 -0.011894867 -0.0025075208 -0.036293607 0.014192151
-0.018004507 -0.0038317912 -0.012660924 -0.021878026 -0.01754862 0.013543013 0.0037275564 0.03434149
-0.0015207027 6.553773e-05 -0.033740155 -0.0058930703 0.0011148835 0.049832746 -0.0422236 0.059374735
-0.019798364 -0.01808483 -0.006684723 0.04169634 -0.011719732 5.5321136e-05 0.032960337 -0.0093058795
0.00676487 -0.013711599 0.014688729 -0.01199137 0.028725795 0.028090503 -0.01658416 0.0021842883
-0.0048477803 -0.03956103 -0.0026945856 0.01180351 0.009066811 0.0055249846 -0.00121021 -0.013867577
0.02116245 0.038206726 0.020644747 -0.011201226 -0.0031225178 -0.035118323 0.073105596 0.002620133
0.008658455 0.00037963327 0.02830584 0.005856264 0.02584092 0.028789526 0.03385553 -0.037831336
-0.022224959 -0.012059282 0.007981914 -0.021098405 -0.017650532 -0.01587292 0.003336506 -0.029397342
-0.004114905 0.020229045 0.016285174 -0.0073103188 0.020798359 -0.023752736 0.021956723 0.011720043
-0.04979365 0.019615553 0.0058658705 -0.034456067 -0.008245149 0.011548779 -0.018281385 0.016931562
-0.004054653 -0.013882276 0.0024240278 -0.011948776 0.0109162275 -0.03572127 0.014823994 0.004959989
-0.010096852 -0.031095484 -0.0071214805 0.022321055 0.0022782807 0.015726764 0.008240317 0.019515332

1.bias f4 [128]
00000000: 16c8 b0be 84ef 513e 372c 543e cd0e 2ebe
00000010: d549 5b3f 7693 e13d 0957 15be 47ed 90bd
00000020: 5bb3 bbbe 04bf 96be 6410 56be 3427 883e
00000030: bfd8 ca3e f2fd b0be d507 f83e 55a6 b9bd
00000040: b6a0 acbe 39bb b83e 9388 ff3e 6887 47bf
00000050: e772 233e d8b9 fc3c efb3 8d3e 0ec3 48be
00000060: bb3a 3dbe 7017 543e dd5b 0dbf 4674 bdbe
00000070: 640b d3be 573f a6be 9eee 883e f02f 2cbe
00000080: 0d15 6fbe 78b7 743d 447d c83e eb23 c23e
00000090: 6dae b9bd e57d 9bbe e5da 803e 7d10 c73e
000000a0: 52a0 b0be 37e9 78bd a460 b6be 935a 9a3e
000000b0: 813f 81be e181 2fbe 5d05 5b3e eefb 943e
000000c0: 8cfe afbe 35bc 9ebe c6ef 583d a0db b43e
000000d0: 8409 aebe 7b48 b8be 05f1 86be 0378 debe
000000e0: 3b71 cebe f182 1abf 47be 4a3e cf06 3c3e
000000f0: a30f 883e 7498 583e 2b9c 4fbe d0f3 2ebe
00000100: 739c 823e 5144 86be ea5c d73e d0af 7b3e
00000110: c0dd 87be 8c3e 8cbe 9c8d 613e a819 813e
00000120: ea74 03be f413 82be 4e22 e3be 9f7a 32be
00000130: 26e8 c03e 42b2 793d 6a93 643d 7c9a c43e
00000140: a474 04be e4cd 94be 9bbd b53e b93c 92be
00000150: 5b36 693e 3382 563f d184 7fbe 5f35 b93e
00000160: 8fb1 593e 4c7b b1be 4b73 58bf 6bc8 b73d
00000170: 7e7f 073e 9f53 8bbe 6026 383e 2730 563e
00000180: 6981 eabe 72d9 dc3d a9b0 b13e 5df9 c93e
00000190: e95e 9bbe 0eeb ddbe b860 30be 74cf 94be
000001a0: 3949 a73e 4f46 b33e 3cad 2c3e aa65 a4be
000001b0: 79d8 a8be 7880 ad3e 0d50 5e3e 7fda 81be
000001c0: fd97 cfbe 587a 2bbe 6c4c b7be aea5 e4bd
000001d0: 0bff 903e 74dc 5bbf a1a8 dfbe 0b34 1ebe
000001e0: 55c6 463e 188f c53e 639d 4ebe 899f d6be
000001f0: b92b 55be c0f9 d8be 11c3 8bbe 745d 5ebf
-0.34527653 0.20501524 0.20719992 -0.16997834 0.85659534 0.11014454 -0.14583983 -0.07076507
-0.36660275 -0.29442608 -0.2090469 0.2659241 0.3961849 -0.34568745 0.48443475 -0.090649284
-0.33716363 0.3608034 0.49908885 -0.7794099 0.159618 0.030850336 0.2767634 -0.19605657
-0.18479435 0.20712066 -0.552183 -0.37002772 -0.41219628 -0.324702 0.2674455 -0.16815162
-0.23347874 0.059745282 0.3915807 0.37918028 -0.09066472 -0.30369487 0.25167003 0.38879767
-0.34497315 -0.060769286 -0.35620606 0.30147228 -0.25243762 -0.17139389 0.21388765 0.29098457
-0.3437389 -0.31002966 0.05296304 0.3532381 -0.33991635 -0.35992798 -0.26355758 -0.43450937
-0.40320763 -0.6035605 0.19799148 0.18361972 0.2657443 0.21151906 -0.20274417 -0.17085195
0.25509986 -0.26223996 0.42063075 0.24578786 -0.2653637 -0.2739147 0.22026676 0.25214887
-0.12837568 -0.25405848 -0.4436211 -0.17429589 0.37677115 0.060961016 0.055804648 0.38399112
-0.1293512 -0.29063332 0.3549622 -0.28561953 0.22774641 0.8379242 -0.24953009 0.3617353
0.2125914 -0.3466438 -0.84550923 0.089737736 0.13232228 -0.27212235 0.17983389 0.20916806
-0.45801857 0.10783662 0.34705094 0.39448062 -0.30345848 -0.43343395 -0.17224395 -0.29064524
0.32673052 0.3501458 0.16862959 -0.32108814 -0.32977656 0.33887076 0.21710224 -0.25362012
-0.40545645 -0.16745889 -0.35800493 -0.111644134 0.28319582 -0.8588326 -0.4368334 -0.1544954
0.19411595 0.38585734 -0.20177226 -0.4191859 -0.2081746 -0.42378044 -0.2729726 -0.8686135

2.weight f4 [64, 128]
00000000: 270b 67bc c30d 2d3a 31c4 6ebc 1ffc e1bb
00000010: 46ea 33bc c12f 2d3c 02cd c6bc df74 42bd
00000020: 4be3 8f3c fd13 033d eb04 8dbc 77ff 4bbc
00000030: 8b29 5dbb db15 33bc 3eee 023b 48ed 4c3c
00000040: b3cc b63b 045b e3b8 84fc d8bc ed78 d1bc
00000050: 5e8f d8bb 585a 04bd f3b9 dd3c f9ee 86bc
00000060: b5e6 7cbb 53d2 18bc 1f16 1a3c cbd8 623a
00000070: e390 2c3c 3602 eb3b a485 5dbc 064b 5b3c
00000080: c6a8 f6bb cd74 77bc 8d1d adbc 265e 94bc
00000090: e67b a1bb c438 0f3a e442 dfbb 1345 f63c
000000a0: 97b7 173c b23a 9dbb e824 11bc 3d96 00bc
000000b0: 5549 98bc a2fd c8bc 3627 ae3c effb 0438
000000c0: 3052 35bc ee82 74bc f72a 213b 1382 24bc
000000d0: 93a4 213c 1295 d73c cf39 b23b d7b0 573c
000000e0: 17aa 5b3c e2bb ff3b 67fd 243c 79f0 52bc
000000f0: 6eea b93c f902 4f3b 336e e8ba df89 603c
00000100: 3e10 d73b dbb7 19bb 30b8 dbbb 73de 193d
00000110: 981a 443c b44a 143c 9da5 d7bb c898 d9bb
00000120: 5377 d23c 58e9 d2ba 700f a6bc dd19 f9bc
00000130: 95c7 9a3c dec8 c7bb 79e9 82bc 9ca1 1dbc
00000140: ad44 1ebd 661e 0cbb 1893 79bc dc1f d7bb
00000150: d813 28bd 00f3 edbc 96af 8bbc ea29 183c
00000160: 0f6c 87bb 4cbe cc3a a1b7 f53c 055b 7b3c
00000170: 8d42 61bb 4748 11bc 1acf f93c 8cd4 713c
00000180: 77b5 bdbc 2df0 063c 3b0e 0b3d bb17 b3bc
00000190: 3c02 d53c b7cb b43b 6939 983c 0565 3a3b
000001a0: a5eb 7f3b 8a41 573d 7453 fe3b f374 873b
000001b0: 4be2 df3b 20a2 7f3c 6124 d9bc 47d4 203c
000001c0: abba aa3c 50e7 cfbc 768d 0c3d 2115 943c
000001d0: 00b1 b63c 11b1 5cbd 03fb bdbc 30f0 38bc
000001e0: 837c 3cbb 6499 523c 856f e1bc 7796 2b3a
000001f0: 427f db3c 386e 583c c8cf 9d3c ecca 1abc
00000200: 12a7 0cbd c727 c63b 58d8 abbb 92dc bbbb
00000210: 5883 26bd 9099 4d3c 8e1c 1a3b 9124 043c
00000220: 306f 253c 9a6a 94bb 02fc 923c 6bdf ffba
00000230: 4d1e a3bb 2bd2 c53c ce5c b93b 01c6 19bd
00000240: 5874 83bc 0c0d 633c 25e8 65bc ee0e a8bc
00000250: 2dfb 5e3c 2fcb 87bb ef13 33bc 88f1 0839
00000260: e085 e13b a21b 3bbc b302 2a3c dc72 a73b
00000270: 47b4 393c 2967 d93b de2e 8abb bbf0 afba
00000280: a52f d4bc fbae 0fbd eacb 92bc 4622 833c
00000290: f8f1 f6bb 4444 8b3c f312 3d3c e43d 90bc
000002a0: fda2 d83b e640 2cbd 9722 223c 5a21 cbbc
000002b0: 886b a5bc e9a2 b93b bad7 adbc c2ab 21bb
000002c0: 88e6 93bc 6b21 823c 1999 2b3c 6745 a4bc
000002d0: e1f2 ffbc c908 6f3c 80b7 23bb 77a6 6cbb
000002e0: 2ac8 e73c 772b c6bb d0cd 2c3b adfa cfbb
000002f0: 7373 883c d0c6 f9bb b254 1ebb 9f39 ed3b
00000300: 7cc3 323a 4748 473a ce9e 20bc 3ffd 37bc
00000310: 138a d7ba fb3f 8e3b fc9f 05bd 6ec6 d83b
00000320: ce23 b9bb 0aa0 c63c 14ad 8d3b 7445 aabb
00000330: 7075 a03c 4162 c13a b4e8 293b 28b6 aabc
00000340: f275 9e39 9f11 b23c b792 73bc 4432 803c
00000350: c782 fe3b f385 e1bb ea35 443c 5b0b 56bc
00000360: c399 293c efe6 703c a23c 49ba 5f9c 0f3c
00000370: fa6c 9a3c bace 17bc 9b3b faba f1d1 933c
00000380: 7e51 23bc 7e52 16bb 5da1 9bbc 5334 15bc
00000390: 1fa7 a23c 7786 b03c 6bd6 acbb f260 093b
000003a0: 5c83 8dbc 80ba 84bb 6b44 82bc 3057 0dbc
000003b0: bf90 e9bc ce89 8c3c 2b97 733c d2f9 96bc
000003c0: 2ca0 f33c 0a3e 2fbc 8071 fb3a 3fa7 57bc
000003d0: cb88 84bc 0a93 bf3b f5d1 9eba 8ff4 ffba
000003e0: 024e 0bbb cdc1 3dbc 94ba 4dbc d925 1a3a
000003f0: e230 90bb 9299 8dbc e566 79bc 957a 1fbd
-0.01410178 0.0006601477 -0.014573143 -0.0068965103 -0.010981148 0.010570467 -0.024267677 -0.04747474
0.017564436 0.032001484 -0.01721426 -0.012451044 -0.0033746685 -0.010930504 0.001997843 0.012507744
0.0055786013 -0.000108411565 -0.026487596 -0.025570357 -0.0066088876 -0.03231272 0.027066207 -0.016471373
-0.003858966 -0.009327489 0.009404688 0.00086535205 0.010532591 0.0071718944 -0.013520632 0.013384586
-0.0075274436 -0.015103531 -0.021132255 -0.0181113 -0.0049281 0.0005463476 -0.006813394 0.030062234
0.00926008 -0.004798257 -0.008858897 -0.00784832 -0.018589655 -0.024535004 0.021258932 3.1705884e-05
-0.011066958 -0.014923794 0.002459226 -0.010040778 0.009865898 0.0263162 0.00543902 0.0131647205
0.013407252 0.00780438 0.010070181 -0.012874716 0.022694793 0.0031587465 -0.0017733037 0.013704746
0.0065632155 -0.0023455534 -0.0067053065 0.03756566 0.011969231 0.009051014 -0.006581022 -0.0066405274
0.025691664 -0.001609127 -0.020271033 -0.03040784 0.018893996 -0.0060969433 -0.015980469 -0.00962105
-0.038639713 -0.0021380424 -0.015232824 -0.006565077 -0.04103455 -0.029046535 -0.0170515 0.009287337
-0.0041327546 0.0015620678 0.029994788 0.015341525 -0.0034371943 -0.00886733 0.030494262 0.014760148
-0.023157818 0.008235973 0.033949118 -0.021861902 0.026002042 0.0055174488 0.018582063 0.002844156
0.0039050367 0.052552737 0.007761413 0.0041338145 0.006832396 0.015602618 -0.026506605 0.009816236
0.020840963 -0.025378853 0.034314595 0.018076481 0.022301197 -0.0538798 -0.02319098 -0.011287734
-0.0028760738 0.012853954 -0.027518997 0.00065455533 0.02679408 0.013209872 0.019264117 -0.009447794
-0.03433902 0.0060472223 -0.005244296 -0.005733081 -0.040652603 0.012548819 0.0023515555 0.008065359
0.01009731 -0.0045293095 0.017942432 -0.001952154 -0.0049779774 0.024148067 0.005656815 -0.037542347
-0.016046688 0.013858091 -0.014032398 -0.020514932 0.01360969 -0.0041440944 -0.0109300455 0.00013059948
0.006882414 -0.011420162 0.01037662 0.005110128 0.011334485 0.006634612 -0.004217013 -0.0013423184
-0.025901625 -0.035078984 -0.0179195 0.016007554 -0.007536169 0.017000325 0.011540162 -0.017607637
0.0066112266 -0.04205408 0.009895942 -0.024796177 -0.020192876 0.0056651724 -0.02122103 -0.0024669026
-0.018054262 0.015885076 0.010473513 -0.020052625 -0.031243743 0.014589497 -0.00249812 -0.0036109963
0.028293688 -0.006047662 0.002636779 -0.0063470216 0.016656613 -0.0076225773 -0.002415937 0.007239535
0.00068192906 0.0007602018 -0.009803487 -0.011229812 -0.0016444348 0.004341123 -0.032623276 0.0066154515
-0.00565002 0.024246234 0.004323611 -0.0051962677 0.019587249 0.0014754013 0.0025926055 -0.020838812
0.00030223985 0.021736918 -0.0148665225 0.015648969 0.0077670547 -0.006882423 0.011975745 -0.013064231
0.010351601 0.014703496 -0.00076765765 0.008765309 0.018850792 -0.009265596 -0.001909125 0.018044444
-0.00996816 -0.0022937353 -0.018997842 -0.009106713 0.01985508 0.021548493 -0.005274584 0.0020962325
-0.017274551 -0.004050553 -0.015901765 -0.008626744 -0.028511403 0.017155554 0.014867584 -0.01842967
0.029739462 -0.010695944 0.0019183606 -0.013162433 -0.01617851 0.005846386 -0.0012117015 -0.001952784
-0.0021256213 -0.01158185 -0.012556691 0.00058802735 -0.0044003585 -0.017285142 -0.015222286 -0.038935263

2.bias f4 [64]
00000000: 2d77 0cbe bc89 e8bd 3629 2a3e 21da 213e
00000010: 010e 07bf d686 cebe ba74 25be e19d 93be
00000020: 6268 713e faf0 723e a49f 1d3e 9911 0dbe
00000030: 22fd a93d e9ce 3dbf e115 08bf 5af6 2f3f
00000040: ec23 11be 965b 93be 1f5a 8fbe d02b 9cbe
00000050: 0259 4bbe a23a 883e 5337 cb3e 3916 4c3d
00000060: a937 403e 74fc efbe 2f1b 54be 6514 d8bd
00000070: d5ff 2c3f 8c0b fc3d c21f a23d 766d 953e
00000080: ed09 a4be b7d1 363f b7f9 513e 926d 3abf
00000090: 821a c13d 203f 87be ece0 20be 1f98 92be
000000a0: f24b 2a3e 8e8f 1abe 7dee 0a3d 4f55 74be
000000b0: b7ae 4dbe f95a a43e 394c f7be 199e dfbe
000000c0: e9f1 ee3e fc28 b9be ce9c 913e 93cc b53e
000000d0: 7625 143f f2bc 0f3e a245 1d3f 5449 e7be
000000e0: 3cce 92be 04b9 80be adae 883a b295 c9bd
000000f0: f012 34be 577e 13be df38 993e d8b4 0abe
-0.13717337 -0.11354396 0.16617283 0.15805866 -0.52755743 -0.40337247 -0.16157809 -0.2883139
0.23574975 0.23724738 0.1539293 -0.13776244 0.083002344 -0.74143845 -0.53158385 0.6873528
-0.1417386 -0.28780812 -0.27998444 -0.30502176 -0.19858173 0.26607233 0.39690647 0.04982588
0.18771233 -0.46872294 -0.20713495 -0.10550765 0.6757787 0.1230689 0.079162136 0.29185075
-0.32038823 0.7141375 0.20505415 -0.7282344 0.09428884 -0.26415348 -0.15710801 -0.28631684
0.16630533 -0.15093824 0.033918846 -0.23860668 -0.2008618 0.32100657 -0.4830034 -0.43675306
0.46668938 -0.3616408 0.28439945 0.3550764 0.5786966 0.1403692 0.61434376 -0.45173132
-0.2867297 -0.25141156 0.0010428034 -0.09843005 -0.17585349 -0.14403664 0.29926202 -0.13545549

3.weight f4 [32, 64]
00000000: 780e cd3b a8da 9c3c 4d32 c4bb fc2c 453d
00000010: e07f 243d 2bd2 143d 044d 07bb 53c8 ac3c
00000020: 019d 343d a918 0a3c 9136 a5bb d060 eabb
00000030: 29b9 7a3c b23f c2bc d0e7 173d 01f0 0dbd
00000040: 69f6 38bd 8d5e 0bbd e764 133d 2d77 443b
00000050: 5604 c03c f8a9 59bb 92d4 84bc eedf 623c
00000060: 7f54 913b 5f7a ce3b 81ec 0eba aca5 233c
00000070: 85bb 0e3d b9d0 a33c 03f3 88bc bc83 583c
00000080: f08b fc3b 62ab a6bc c7e2 2ebc 02b5 17bc
00000090: 51a4 75bc a696 163d 7442 4d3c 3883 1f3b
000000a0: 3b49 90bc 7be6 473c 273c b7bc a0ad 773c
000000b0: 2187 adbb 4b7e 8ebc 9160 ab3b 08aa 033d
000000c0: 1f7d c8bb 7992 553c 4ed2 b2bb 23c0 dbbc
000000d0: e017 1cbd 0884 a1bc 627f 11bd 5a4a bb3c
000000e0: 2186 013c 457d 11bc c9e4 f2ba f228 45bb
000000f0: 3f8b 1f3c 0e8f 2cbc 5d3a a3bc 6236 6db9
00000100: 5de7 3e3d 9ae9 e23c 2c63 60bb 9b7c fb3b
00000110: ece7 253a 7fb4 c83c ce75 b03a 5b4a db3b
00000120: 9112 1d3d 2403 1b3b b28d 29bc 347f 74bc
00000130: f73b df3c 39ef fbbc 27e9 4cbc d00c 22bc
00000140: db6b 423b 1a1f 863a d5f2 77bb f515 c3bc
00000150: 9b71 d5bc 6a46 7dbb f02c 41bd c35c 1abc
00000160: 9f45 9f3c e99b 9a3c 08b1 9dba 9304 4c3c
00000170: 5f2a 9bbb 5768 61bc 3de8 babb 50b5 07bd
00000180: d0cd 803c d178 f8bc c53f 6ebc 6937 43bc
00000190: 9858 06bd eb14 49bc c2bd 343c b633 433b
000001a0: 38a0 8dbc f437 c6b9 95a9 a7bc aa4e e93b
000001b0: ae19 1ebd 5867 1d3b f982 e43a 291a 203c
000001c0: 4657 48bb 3bd4 e83c d990 edbb 6d4a 7abd
000001d0: 79af 4a3b 7bf4 19bd b936 25bc 467d ac3c
000001e0: 6fa0 a73c ed16 86bc 0dc5 c4bc 5a5c 97bc
000001f0: 3c8a 713b 88ed 883c 883c e83c 9602 333d
00000200: ce0a 9d3c 6953 68bd e920 f33c dd67 383d
00000210: 62fa 73bd b491 e23c f938 d83b 38b8 533d
00000220: 33ec 923c 0458 9c3d 8bb4 a3bc 1faa cebc
00000230: 719b 443d a6fd 863d 5eb2 5dbc e827 c43d
00000240: c26c a0bc 056a 6bbd 9f02 96bb 0415 d6bc
00000250: 568e 2bbd 3c6a c23b f4b0 33bd d52b 8bbc
00000260: 8b60 b73b 57f3 9e3c 201f c93b a8a0 883c
00000270: a736 253d 90ce 9abb 9074 93bc ed2c f23c
00000280: 47a6 123c 68f4 85bd 4b6d 04bc 8eb5 b2bd
00000290: 16f7 533d 0c7a a03d 86c2 edbc 1f73 2cbc
000002a0: dd02 513d 0788 a63c aa08 74bc 5849 09bd
000002b0: 2609 153c 2566 c0bc 56a2 2b3c 4304 dfbc
000002c0: d92a 91bc b47c ca3c eea7 08bd f303 14bd
000002d0: bbc1 d9bc cf34 8c3c e98d 8abc c209 31bc
000002e0: 0542 8d3b 252d 8ebc 2a7a 99bd e2b1 39bc
000002f0: 7c91 053d 550f 9cbb a346 e6bc c128 883c
00000300: 2129 6dbd a5d2 193d 7c1c 49bd f8fe e2bd
00000310: 37bc 753d d7d5 67bd 3ace 0dbc 8c9d 74bd
00000320: 1ecf 48bd b2ba a2bd 9701 b8bd 7327 1cbd
00000330: 012b 98bd 08c0 a6bd fabe 31bd bf50 5d3c
00000340: 5b4e d1bd b588 173d 991c 49bd 9933 8c3d
00000350: 6113 0cbe 3f99 3c3d 962e 66bd 24d9 813d
00000360: 8267 dfbd 39e2 283a 1e2d dc3d ead7 70bd
00000370: 6a34 b83c 42e0 fc3d b3b7 923d 6969 c23d
00000380: 4622 363d d17c 713d 1622 903b 7a48 9cbd
00000390: dae7 d03b 8ceb 0d3d 9587 d13d 9344 763c
000003a0: 326b ab3d 99b0 f2bc 69b7 d33d cabb c13d
000003b0: e4bc 96bb fd20 12bb ab3f 3ebc 74b5 89bc
000003c0: 825e e53c 7dbc 5e3c 08b0 65bd 71cc 07bc
000003d0: ecfe 593d a7bb 2dbd 2539 63bd 331a 16bd
000003e0: ca8a 9f3c 497d 9abd d7f2 a7bd 9c08 7abd
000003f0: b9e2 dabd 723b e2ba 917a 26bd b5fb 443d
0.0062578283 0.019147232 -0.0059874416 0.048138604 0.040161014 0.036333244 -0.002064527 0.021091616
0.044095043 0.008428731 -0.005041905 -0.007152654 0.015302935 -0.023712013 0.037086308 -0.034652714
-0.04515687 -0.034025718 0.0359849 0.002997826 0.023439568 -0.0033212882 -0.016214643 0.013847334
0.0044351215 0.006301209 -0.0005452112 0.00998823 0.0348468 0.019996988 -0.01671744 0.013215002
0.0077071115 -0.020345394 -0.010674185 -0.009259464 -0.014992789 0.036764763 0.012528051 0.0024339687
-0.017613044 0.012200947 -0.02236755 0.015117079 -0.0052956496 -0.017394206 0.0052300175 0.032144576
-0.006118431 0.01303541 -0.005457199 -0.026825016 -0.038108706 -0.019716278 -0.035521872 0.022862602
0.007905514 -0.008879964 -0.0018531318 -0.003008422 0.009737789 -0.010532154 -0.01992529 -0.0002262234
0.046607364 0.02769928 -0.0034238799 0.0076747662 0.00063288095 0.02450013 0.0013462843 0.0066922135
0.038347784 0.0023652995 -0.010348724 -0.014922906 0.027250273 -0.030753719 -0.01250676 -0.00989075
0.0029666338 0.0010232658 -0.0037833948 -0.02381418 -0.026055148 -0.0038646706 -0.047161996 -0.00942153
0.019442378 0.018873172 -0.0012030909 0.012452262 -0.0047352756 -0.013757787 -0.0057039545 -0.033131897
0.015723139 -0.030331047 -0.014541571 -0.011915066 -0.032799333 -0.012273054 0.01103157 0.002978546
-0.017288312 -0.0003780719 -0.020466605 0.007119973 -0.03859871 0.0024017897 0.0017434052 0.009771862
-0.0030569597 0.028421512 -0.007249933 -0.061106134 0.0030927344 -0.03758667 -0.010083848 0.021055829
0.020462243 -0.016368354 -0.024019742 -0.018476654 0.0036856076 0.016714826 0.028349176 0.043703638
0.019170191 -0.05672017 0.029678779 0.045020927 -0.059564956 0.027657367 0.0065985885 0.051689357
0.017934894 0.07633975 -0.01998355 -0.025227604 0.047999803 0.06591348 -0.013531296 0.09577924
-0.01958311 -0.057474155 -0.004577949 -0.026133068 -0.04188379 0.0059330743 -0.043869928 -0.016988674
0.0055962256 0.019403143 0.0061377436 0.01667817 0.040335324 -0.004724331 -0.017999917 0.029562438
0.008950776 -0.065407574 -0.008082698 -0.08726035 0.05174931 0.078357786 -0.02902342 -0.010525494
0.05102812 0.020328535 -0.014894644 -0.03351721 0.009096419 -0.023486206 0.010475716 -0.027223712
-0.017720627 0.024717666 -0.033363275 -0.03613658 -0.026581636 0.017115025 -0.016913371 -0.010805549
0.0043108487 -0.017355511 -0.07494004 -0.0113339145 0.032609448 -0.00476257 -0.028109854 0.016620995
-0.05790055 0.037554402 -0.04909943 -0.11083788 0.05999395 -0.056600418 -0.008655125 -0.05972056
-0.049025647 -0.079457656 -0.08984678 -0.03812356 -0.07430077 -0.08142096 -0.04339502 0.013508021
-0.10220023 0.03699561 -0.04909954 0.06845779 -0.13679267 0.046044584 -0.05619677 0.063402444
-0.109084144 0.0006442401 0.10750793 -0.05879966 0.02248593 0.12347461 0.07163944 0.09492762
0.04446628 0.058956925 0.0043985946 -0.07631011 0.006375295 0.034648463 0.10230938 0.015030998
0.08370055 -0.029625224 0.10337717 0.09459646 -0.0046001542 -0.0022297495 -0.011611859 -0.016810156
0.027999166 0.013594744 -0.05607608 -0.008288489 0.053221628 -0.042415287 -0.05547442 -0.03664608
0.01947536 -0.075434275 -0.08200615 -0.061043367 -0.10687775 -0.0017260148 -0.040644232 0.04809161

3.bias f4 [32]
00000000: 6722 7b3e 18e9 203e 3f4f 00bf 6244 2c3f
00000010: ea98 433d 40b0 ffbe f6d4 1fbf 7d46 663e
00000020: 1f45 29be c74e 223f cb0f 9c3e 76b2 163f
00000030: 3143 073f 2d19 76bd 41a7 16bf 7862 c33e
00000040: 3e3d 913e 6137 983d 8f6f e5be eed2 df3d
00000050: 842c 243f faf6 8bbd 40fe cdbe 2bc9 b0bd
00000060: d802 763e 83da 50bd ffbd 693d ceff d1bd
00000070: f6db aebd 51ef 963e 83e3 a13e 8462 d33d
0.24524842 0.15713918 -0.5012092 0.67291844 0.047753252 -0.49939156 -0.6243433 0.22487827
-0.16530274 0.63401455 0.304808 0.5886606 0.528369 -0.060082603 -0.5884896 0.38161063
0.28367037 0.07432438 -0.44811675 0.109289035 0.64130425 -0.068342164 -0.4023304 -0.0863212
0.24024522 -0.05098964 0.05706596 -0.10253869 -0.08538048 0.2947946 0.3161889 0.10321525

4.weight f4 [16, 32]
00000000: b116 383e 8f21 813c 1760 103e 281b 33bb
00000010: bca3 9fbc e357 6dbd 3b9e 90bc a6bf 103d
00000020: 968e 00be 0a1c cdbb 4b70 05be e5bd 8b3d
00000030: 3651 203e 8010 11bc 9104 0ebd 1b3b 51be
00000040: 522f 723d 184d f83d 2f36 53bd 7bb3 07be
00000050: 772b 9dbc c22a e33d fcf7 e03d d4c6 b5bd
00000060: fb42 2dbe e5ad ff3d de74 6c3d de62 80bd
00000070: a89d 913c 2345 09be c76d d23c ec12 91bc
00000080: 5863 17be 3e7b aa3d 4136 29be 6bc6 f2bd
00000090: 449a 94bd 3f27 293d 0b62 dcbd 4b05 b03d
000000a0: 20fc 823d d447 f03d b8fb 343e 5b62 e83d
000000b0: ebfd 063d 7501 e3bd e398 06be 23d4 303d
000000c0: 1af7 203d 702f f6bc 5ef2 183e b8a9 d7bc
000000d0: 5f05 88bd 62ee 75bc d40e 8f3d 851b c6bc
000000e0: 1c8d 2f3e 0783 8cbd 89d1 50bd 72d8 2d3d
000000f0: fffb 7abc 31d9 2a3e 2329 903d 6da9 173e
00000100: 499d edbd 9bee 143e fc18 823d 710a 88bd
00000110: b575 a8bd 5fc6 1f3c 5ebc b63d a862 273e
00000120: b477 e03c c040 c73d 0bab 1a3d 4b6d 7b3d
00000130: 6c9a 783c 4779 38be 3062 f4bc ef8c 433e
00000140: 42b1 e9bd 9af7 513d 5474 1c3d fe4f b33d
00000150: e11c 23be b773 c63c ab33 193e 78f3 c4bd
00000160: 78dc 073e 26d2 27be ecf1 0cbe bf7e 46be
00000170: 101b 43be d68f b4bd ea50 513d 0e06 ecbd
00000180: 09bd c93d 51da 59bd 19d0 a73d 9d14 b9bd
00000190: a4ca 093e 20b1 d93d cde0 123e 7ff5 6fbd
000001a0: bc2c 083e 2b96 78bc c3ca 04be 0a8b 333e
000001b0: 97f9 123d a656 44be edb3 4e3d c341 8d3d
000001c0: 5b14 2dbe 84b8 fdbd a244 0dbe 2391 383d
000001d0: b7b9 adbd a0fb ac3b 1df5 c63d 228c 123e
000001e0: 1ef6 1abe 9f09 6b3d 9a0d eabd 94de 2dbd
000001f0: 14f7 a83d cbaa 64bd 330b 093d 48f1 2f3e
00000200: 67ac a93c 2960 4d3d 84a5 ee3d 93fe b83d
00000210: 425a 94bd 6aaa d4bd 6c34 d8bd 9cc9 1fbe
00000220: fd4b c3bc 0165 ad3b 55e1 1dbe 7502 843d
00000230: 292a 333d c5bf 0b3e 5b6d 71bd 739e 8abd
00000240: 299a 7bbd 8313 0e3b 489a 81bd 136e 023c
00000250: 3d72 f63c 05fe 73bd 4f9a 27be 2064 ebbd
00000260: 2da0 aa3c 07ce 443d 1f11 81bd 59ab 15be
00000270: 2486 c9bd 05b1 a7bc 168e 813d 0a45 d33d
00000280: 1002 e9bd 651e 53bd 3dd7 6f3d 0c10 aa3d
00000290: 3536 04be e80a ca3d dcdf f73d 949d 15be
000002a0: 6144 31bd 8b1b 0ebe c93f 06be aba8 10be
000002b0: ed36 2b3e 391b 01be 229f 613c 61a4 0fbe
000002c0: 70a2 1dbd 216a 693d 035a 8d3d 5d19 0abe
000002d0: a3e2 163c 7559 483d d84d cc3d cfd3 35be
000002e0: 1ba2 81bd 7d17 53be 472f 11bd e120 26be
000002f0: a559 c43c 40bd 60bd 1692 8ebd 7175 9abd
00000300: 71d5 31be b538 d13c 0551 b9bd d1f0 94bd
00000310: 9068 08be 54d4 1e3d abe5 fe3d b2bd 0f3e
00000320: af68 2b3d 700e fabd 688d 7b3d 523c 373b
00000330: 2567 f8bd fd16 84bc d35d 88bc b886 b03b
00000340: 8d55 1b3e ff0a 4b3e c347 c23d 3d86 543c
00000350: 2980 90bd b99a 8fbd 0132 7b3d f711 023e
00000360: b75e f83d 49e3 45be 8333 a13d fc95 a4bd
00000370: f050 c73d 2b38 2a3e 4de4 19be 9f6d fa3d
00000380: e0b0 eabd 9233 57bd 8d2a 1fbd acae 663d
00000390: 6983 58bd afab 81bd 1659 ef3d b3b7 9fbd
000003a0: 8bae bdbd 8b14 f5bd 70b7 53bd 02e9 e1bc
000003b0: f9fa e13d fe99 7e3d 77f3 403b a506 d13d
000003c0: 8eac fbbd 5d7b 9c3d 3b44 643d 630d c2bc
000003d0: 3058 df3c 277e bb3c b8a8 31be ea5a b33d
000003e0: 39d5 1d3e 8336 aebc 67d4 fe3d b3bd 0a3e
000003f0: 190c bcbc 01e8 11be 56fd 1bbe b0a5 a53d
0.17977406 0.015763072 0.14099155 -0.0027329419 -0.019487254 -0.057945143 -0.017653575 0.03533902
-0.12554392 -0.006259446 -0.13031118 0.06823329 0.1565598 -0.008854032 -0.034672324 -0.20432703
0.05912716 0.121240795 -0.051565345 -0.1325206 -0.019185765 0.1109214 0.10984799 -0.08875814
-0.16920082 0.124843396 0.05772864 -0.062688574 0.017775372 -0.1340528 0.025687112 -0.017709218
-0.1478399 0.08324288 -0.16524602 -0.118542515 -0.07255986 0.041297194 -0.10760888 0.085947596
0.06395745 0.1173245 0.17674148 0.11346885 0.032957 -0.11084262 -0.13144259 0.04317106
0.039298154 -0.030051917 0.14936206 -0.026326045 -0.066416495 -0.015010448 0.0698525 -0.024183044
0.17143673 -0.06860929 -0.05098108 0.042442746 -0.01531887 0.16684414 0.07039096 0.14810725
-0.116022654 0.14544146 0.06352422 -0.066426165 -0.08225576 0.009751885 0.08922647 0.16346228
0.027400829 0.09729147 0.037760776 0.061383527 0.015173536 -0.18015014 -0.029831976 0.1909673
-0.11410762 0.051261522 0.038196877 0.08755492 -0.15928985 0.024225099 0.14961116 -0.096167505
0.13267696 -0.16388759 -0.13764161 -0.19384287 -0.19053292 -0.08816497 0.051102556 -0.11524592
0.09850509 -0.05318672 0.08193988 -0.09037135 0.13456208 0.10629487 0.14343567 -0.058583733
0.13298315 -0.015172522 -0.12967972 0.17533508 0.03588256 -0.19173679 0.05046456 0.06897309
-0.16902296 -0.12388709 -0.13795713 0.04506029 -0.08482688 0.0052790195 0.097147204 0.14311269
-0.15132949 0.057382222 -0.114283755 -0.042448595 0.082502514 -0.055826943 0.033457946 0.17181885
0.02071209 0.050140534 0.11652663 0.09032931 -0.07243778 -0.103840664 -0.10556874 -0.15604252
-0.023839945 0.0052915816 -0.15417989 0.06445781 0.04374138 0.13647373 -0.05894218 -0.06768503
-0.061426315 0.002167911 -0.06328255 0.007960814 0.03008377 -0.059568424 -0.16367458 -0.11493707
0.02082833 0.048048045 -0.06302094 -0.14616145 -0.098400384 -0.020470152 0.06325929 0.103159025
-0.113773465 -0.05154266 0.058554877 0.08303842 -0.12911303 0.098653615 0.12103245 -0.14610893
-0.0432781 -0.13877694 -0.1311027 -0.14126842 0.16720171 -0.12608041 0.01377085 -0.1402755
-0.03848499 0.056985978 0.06901934 -0.13486238 0.009209308 0.048913438 0.09975785 -0.1775658
-0.06329747 -0.20614429 -0.035445478 -0.1622348 0.023968527 -0.054867983 -0.069614574 -0.075419314
-0.17366578 0.025539735 -0.090486564 -0.072724946 -0.13321137 0.03877671 0.124461494 0.14037207
0.04184788 -0.12209785 0.061414152 0.0027959538 -0.12129048 -0.016124243 -0.016646301 0.0053871535
0.15169354 0.19828413 0.09486344 0.012971458 -0.070556946 -0.07011933 0.061326984 0.12702166
0.121274404 -0.19324984 0.07871153 -0.0803642 0.097322345 0.16622989 -0.15028496 0.1222794
-0.114595175 -0.052539416 -0.03885894 0.056318924 -0.052859697 -0.06331574 0.11686914 -0.0779871
-0.09261807 -0.11966809 -0.05168861 -0.027576927 0.11034197 0.062158577 0.0029441991 0.102063455
-0.122887716 0.07640717 0.055729132 -0.023688024 0.02726373 0.022887303 -0.17349517 0.08757575
0.15413369 -0.021266228 0.12442856 0.13548927 -0.022954987 -0.14248659 -0.15233359 0.08088243

4.bias f4 [16]
00000000: 10f8 013f b7a2 2d3f 737f d3be bf65 29bf
00000010: bd5b ed3e a2d0 0bbf 7645 fbbe 1069 1bbf
00000020: 5e5a fcbe 620f d83e 26d8 36bf 9961 15bf
00000030: 997d 1cbf cadf ba3e 25b2 173f 45a2 893e
0.5076914 0.6782641 -0.41308174 -0.6617088 0.46359053 -0.54615223 -0.49076432 -0.6070719
-0.49287695 0.42199236 -0.71423566 -0.5835205 -0.61129147 0.36498863 0.592562 0.26881614

5.weight f4 [8, 16]
00000000: b9b5 313e a6ff 403e 4e7d fabc 1985 d4bd
00000010: 762e 043e 2926 923d 93e9 49bd 0bc1 b73d
00000020: 878e 26be a830 8b3e b5da c6be 3936 0b3e
00000030: 70ec 99be d2d5 843e c782 8b3e 4637 223e
00000040: c042 1b3e 5238 c63d f30d 45be 0fab a0be
00000050: 8dc7 2dbe 6406 60be 080c 6cbe 84ce 23be
00000060: 5ea2 89be 077a 173e 78e9 e7be dda3 79be
00000070: 38c3 9bbe f21b 14bd 321a 3dbb d5dc c2bd
00000080: a63b 95be 4f34 0d3d 0e03 2fbe 2188 10be
00000090: db4a cebd fcda 0fbe e552 8cbd a5ae 423d
000000a0: bada 25bd de4a 62be 80fd f33e 772a 8bbd
000000b0: b9bc cdbd 8b39 1b3d 821e 8d3d b680 dbbb
000000c0: 358d 003e cb1b 11be f710 fbbd 4bc5 9ebe
000000d0: 9a67 853e b4ec f03d 008e d33c 292c 3cbe
000000e0: 354b b6be a2a2 8cbc a42d 90be 7835 aabe
000000f0: b395 98be 517e ca3c 6431 703e 881e 3c3e
00000100: 2bc2 6abe a2bb 14be 4bff 703e 6bcc e03a
00000110: dd64 45be 2275 883e c9c7 cf3d b2cf b33e
00000120: 8606 bebc 1443 b1bd cc74 353e 9564 363d
00000130: 4a31 c0bd b4c8 8ebe 4e83 eebd e0fa 983b
00000140: 8c95 aa3d 3feb 403e 441c d43d 3816 5bbe
00000150: 3439 313e 3905 e3bd d1cf 1b3e 3115 29be
00000160: cc99 a0bc 1389 d2bc e165 3cbe ca35 1fbe
00000170: badb a9be bab2 a8bc 39f2 8e3e a0f5 83bc
00000180: 8804 bb3d 65db 0ebd 8333 b9bc 630f 32be
00000190: 25f3 5d3e 53c6 963c fb15 fa3d 747a bfbc
000001a0: 1aca 42be 999e c1bd ecab 6dbe c359 2cbd
000001b0: 0502 043e bac1 f5bd d67e 3b3e 0843 a1bd
000001c0: 202d 1fbe a7d9 70be 5e3f 38bd 2b7c a2bd
000001d0: f0a7 b3ba b6c0 8f3e c7b6 6c3e 5086 b13c
000001e0: 958d 823d 9457 4dbe 5b53 8d3e cc19 7f3e
000001f0: 2185 00be 2fbb f4bd 3b00 a1be 6dcf 9ebd
0.17354478 0.18847522 -0.030577328 -0.10376949 0.12908348 0.07136185 -0.04929502 0.08972367
-0.16265307 0.2718556 -0.38838735 0.13594903 -0.300632 0.25944382 0.27248213 0.15841398
0.15162182 0.09678711 -0.19243602 -0.31380507 -0.16970654 -0.21877438 -0.23051465 -0.15996748
-0.2688169 0.14792643 -0.4529531 -0.24378915 -0.30422378 -0.036159463 -0.0028854725 -0.095147766
-0.2914707 0.034473713 -0.17091009 -0.14114429 -0.10072871 -0.1404838 -0.068517484 0.047529835
-0.040491797 -0.22098872 0.47654343 -0.06795209 -0.100457616 0.037896674 0.068905845 -0.006698693
0.12553866 -0.14170758 -0.12259095 -0.31009898 0.26055604 0.117638975 0.025824547 -0.18376221
-0.35604253 -0.017167393 -0.2815982 -0.33243918 -0.2980171 0.024718435 0.23456341 0.18371022
-0.22925632 -0.14524701 0.23534887 0.0017150765 -0.19276758 0.26651865 0.10145528 0.35119396
-0.02319647 -0.08655372 0.17720336 0.044529516 -0.09384401 -0.278875 -0.11646138 0.0046685785
0.08329305 0.1883974 0.10356954 -0.21395195 0.17306978 -0.110849805 0.15215994 -0.1651199
-0.019604586 -0.025700128 -0.18398239 -0.15547863 -0.3317545 -0.020593036 0.27919176 -0.016108334
0.09131724 -0.0348772 -0.02260757 -0.17388682 0.21674784 0.018405115 0.12211224 -0.02337382
-0.19022408 -0.09454078 -0.23210114 -0.04207779 0.12891395 -0.11999841 0.18310103 -0.07874113
-0.15544558 -0.23520528 -0.044982307 -0.079338394 -0.0013706665 0.28076714 0.23116599 0.02167049
0.06374661 -0.2005294 0.27602658 0.24912184 -0.12550785 -0.11949765 -0.31445488 -0.07754407

5.bias f4 [8]
00000000: 4021 2d3f 6add c13e f0cd 0bbf ae2a b83e
00000010: 3e97 2ebf c07d 183f f2c1 bb3e c137 15bf
0.6762886 0.37864238 -0.5461111 0.35970062 -0.6819953 0.5956688 0.36671406 -0.582882

6.weight f4 [1, 8]
00000000: 9b2d a03e 79fc d83e 61ba 7abe 9abb cf3e
00000010: 7e42 f5be 0e92 053f 4657 523e 55bf fcbe
0.31284794 0.4238012 -0.2448516 0.40572816 -0.47902292 0.52175987 0.20541105 -0.49364725
