project_data/Pytorch-Models/vina-model/Archive/vina_model_before_activation.pt (torch_old, 485938 bytes, 13 tensors)

0.weight f4 [256, 300]
1.1675597 0.061100148 0.16270049 -0.7051362 0.38480237 -0.0523933 0.22401783 0.9964339
-0.21791077 0.13579041 0.35258043 0.20520103 0.006151184 0.44914517 -0.033141624 0.07921756
-0.9889001 -0.31456748 -0.32732424 -0.15103453 -0.27817547 -0.001758382 0.4141424 -0.48083967
0.2870874 -0.8985472 -0.3674447 -0.27287695 -0.9039145 1.4072328 0.1509307 -0.14647202
-0.10225843 -0.19371659 0.07354057 -0.07771056 0.32436866 -0.41705346 0.41337058 0.1538028
-0.29209796 -1.1857173 0.20693545 0.7720699 0.1723104 0.28441894 0.6643123 -0.51524156
-0.32080656 1.296915 0.57990986 0.013980898 -0.18892926 -0.08210958 -0.16767612 -0.24535356
0.09979107 0.10855273 0.37279582 0.45327973 0.39583218 0.114765435 0.68396163 -0.40301007
0.051368967 0.8957218 0.4036235 -0.37518987 0.050382353 0.5354814 -0.31767932 -0.3863106
0.23348506 0.26489335 -0.018490873 -0.24991053 -0.27665445 -0.35581806 -0.6515183 0.42245784
0.013452346 -0.17887983 0.0020107038 -0.013020328 0.3867904 -0.288601 0.12715413 0.17779624
0.19378205 -0.16219606 -0.2580201 -0.10668117 -0.097660385 -0.6452455 -0.044611406 0.08677153
-0.1775194 0.44645366 -0.049568105 0.5885798 -0.22268073 0.5687741 0.19350548 -0.21842186
-0.15156165 0.38064623 0.18087241 0.2801651 0.31312126 -0.15591699 -0.11219619 -0.22186567
0.94313794 -0.8419982 -0.48747092 0.20398784 -0.6059622 0.10170145 0.041554525 -0.3396834
0.24147674 0.18826249 0.9727273 0.07947206 -0.0012827712 -0.22557627 -0.005452761 -1.3097786
0.099514596 1.3315126 0.26021895 0.02553809 -0.07029677 0.034816597 -0.16585396 0.05365699
-0.17202696 -0.18287866 -0.11823539 -0.34358212 0.018216932 0.78401595 0.9455227 0.25503376
0.38257018 -0.11073038 0.106842875 0.72380805 0.3519611 -0.3719261 0.26500046 -0.55539346
0.5496792 -1.2622203 -0.94508547 0.0015557196 0.16671345 -0.06744976 0.43832782 -0.34103748
1.895481 0.28751254 -0.089740634 0.41838488 -1.9172293 0.4875605 -0.66854775 -0.19511539
0.65997726 -0.045924287 0.08938797 -0.8371177 -0.1971982 -0.28327018 -0.09740475 0.39833376
-0.202782 -0.6057491 0.8207984 0.030008152 0.65967095 -0.19246052 -0.8057358 0.18480113
0.05309642 -0.38569483 0.3526303 0.17809474 0.8188371 -0.23068519 0.23030242 -0.69614697
-0.54267424 0.19527707 0.9627143 0.11077586 0.8676435 -0.34468675 -0.77529883 0.4791342
-0.17329164 0.4800838 -0.07274736 0.33604202 -0.25696263 -0.9115239 -0.16753605 0.044848874
0.061805487 -0.14973752 0.1969919 -0.34070316 -0.015856672 -0.05044839 0.0728168 -0.15807801
0.3373402 -0.49150133 0.029841645 -0.344177 -0.13551648 0.013130267 0.38952014 -0.05005967
-0.08988158 0.2725538 0.5411254 0.5691819 -0.18942308 0.013794504 -0.20879585 0.27309793
-0.32634586 -0.2505247 -1.2507241 0.2946562 0.57689863 0.7952433 0.11833943 -0.2686531
0.29478523 -0.039182067 -0.101626635 -0.18975146 0.4643558 0.24836974 -0.07685481 0.041997023
0.98171705 -0.14342445 0.04502035 -1.0886887 0.10585221 0.07847395 -0.19387834 0.042030264
00000000: 9972 953f 2644 7a3d f59a 263e ce83 34bf
00000010: d104 c53e 5b9a 56bd ee64 653e 4b16 7f3f
00000020: 0024 5fbe a40c 0b3e 6c85 b43e 3820 523e
00000030: df8f c93b 5bf6 e53e 83bf 07bd d13c a23d
00000040: 8f28 7dbf fd0e a1be 0b97 a7be cca8 1abe
00000050: 046d 8ebe 8279 e6ba 790a d43e 9e30 f6be
00000060: 1ffd 923e 3007 66bf b621 bcbe 87b6 8bbe
00000070: f166 67bf 3420 b43f 948d 1a3e c3fc 15be
00000080: de6c d1bd a45d 46be 709c 963d b726 9fbd
00000090: a613 a63e 0888 d5be 4fa5 d33e 7b7e 1d3e
000000a0: dd8d 95be 96c5 97bf e3e6 533e 5fa6 453f
000000b0: 2372 303e 5c9f 913e 5f10 2a3f dfe6 03bf
000000c0: c240 a4be 5001 a63f f974 143f 2310 653c
000000d0: ac76 41be 1129 a8bd 4ab3 2bbe f73d 7bbe
000000e0: 435f cc3d e550 de3d 18df be3e 4814 e83e
000000f0: 84aa ca3e 240a eb3d 1c18 2f3f 5657 cebe
00000100: 4468 523d 064e 653f bda7 ce3e e318 c0be
00000110: ba5d 4e3d 4f15 093f dda6 a2be 81ca c5be
00000120: b516 6f3e 1aa0 873e 2c7a 97bc 8ce8 7fbe
00000130: a7a5 8dbe c92d b6be e7c9 26bf 654c d83e
00000140: 3b67 5c3c 462c 37be 03c6 033b 3753 55bc
00000150: 6409 c63e 83c3 93be b134 023e 3810 363e
00000160: cd6e 463e b916 26be 361b 84be a87b dabd
00000170: 2b02 c8bd cf2e 25bf 73ba 36bd 46b5 b13d
00000180: a5c7 35be 9395 e43e ed07 4bbd 2aad 163f
00000190: 6b06 64be 2e9b 113f 4d26 463e fba9 5fbe
000001a0: fa32 1bbe 10e4 c23e 9e36 393e cd71 8f3e
000001b0: 6e51 a03e b4a8 1fbe 1ec7 e5bd c130 63be
000001c0: 7d71 713f 328d 57bf ca95 f9be 30e2 503e
000001d0: 5720 1bbf da48 d03d 1435 2a3d fcea adbe
000001e0: ae45 773e e2c7 403e a804 793f 3fc2 a23d
000001f0: a922 a8ba 77fd 66be 13ad b2bb d3a6 a7bf
00000200: 4fce cb3d 016f aa3f 6b3b 853e 4235 d13c
00000210: c1f7 8fbd d99b 0e3d 9fd5 29be 6fc7 5b3d
00000220: d627 30be 8b44 3bbe 6525 f2bd ffe9 afbe
00000230: ad3b 953c 45b5 483f c70d 723f c993 823e
00000240: 3de0 c33e 9cc6 e2bd 70d0 da3d 7c4b 393f
00000250: 3f34 b43e 196d bebe 24ae 873e 442e 0ebf
00000260: c7b7 0c3f 6f90 a1bf 1ff1 71bf 4ae9 cb3a
00000270: eeb6 2a3e 1a23 8abd 816c e03e 779c aebe
00000280: 1f9f f23f d834 933e f0c9 b7bd 8b36 d63e
00000290: c567 f5bf 88a1 f93e f225 2bbf 54cc 47be
000002a0: 45f4 283f 1b1b 3cbd 0a11 b73d 584d 56bf
000002b0: 53ee 49be ca08 91be 247c c7bd 67f2 cb3e
000002c0: 16a6 4fbe 5f12 1bbf d81f 523f a8d3 f53c
000002d0: 32e0 283f 5f14 45be b444 4ebf 823c 3d3e
000002e0: a27b 593d cb79 c5be f58b b43e 785e 363e
000002f0: 4f9f 513f bd38 6cbe 66d4 6b3e b036 32bf
00000300: b3ec 0abf b6f6 473e 7274 763f 74de e23d
00000310: e21d 5e3f c87a b0be fc79 46bf 1451 f53e
00000320: 5d73 31be 8bcd f53e 91fc 94bd b30d ac3e
00000330: 9b90 83be a159 69bf 928e 2bbe 74b3 373d
00000340: c027 7d3d cb54 19be 3fb8 493e a570 aebe
00000350: dae5 81bc f9a2 4ebd f920 953d 34df 21be
00000360: dbb7 ac3e 10a6 fbbe 7776 f43c f837 b0be
00000370: d5c4 0abe 5520 573c 2f6f c73e 5e0b 4dbd
00000380: d513 b8bd 2c8c 8b3e 3287 0a3f e8b5 113f
00000390: 20f8 41be 5802 623c 94ce 55be 7ed3 8b3e
000003a0: ce16 a7be c644 80be ba17 a0bf 2ddd 963e
000003b0: a1af 133f 1195 4b3f f15b f23d e68c 89be
000003c0: 17ee 963e 607d 20bd a021 d0bd 354e 42be
000003d0: 0bc0 ed3e a354 7e3e 0e66 9dbd 1205 2c3d
000003e0: cf51 7b3f dcdd 12be 4267 383d 275a 8bbf
000003f0: 0bc9 d83d f3b6 a03d 0b88 46be ed27 2c3d

0.bias f4 [256]
-0.8604638 -3.3880854 -1.0826715 -0.39676327 -14.885481 -2.0812552 0.26299784 -15.02222
-1.128067 2.121217 -14.903755 1.1946459 0.04241148 -7.4236236 3.1264725 -2.5816061
-0.10068394 1.7038379 -0.27209568 0.17006129 -5.025588 14.885474 2.177233 0.10416821
-1.9611802 0.17950407 -2.2990448 -14.976135 -0.38155252 3.606197 13.5869 -1.0526375
-0.1300494 -3.8574657 -4.6654916 -3.6234577 4.5194817 -1.6700746 4.6798697 -1.0366323
5.887699 -1.8124057 -0.3502888 -14.86182 -1.8803604 6.493594 2.0185237 -2.999671
-1.4219937 -1.6835483 -0.014987313 1.2700765 2.2176335 -0.006300463 14.900299 -1.7450905
-2.389968 -0.36539364 4.6447577 4.012845 14.638712 -14.866782 -1.6395663 0.71185684
-0.76487654 -4.642947 -0.031891834 4.171968 3.7471008 -3.544049 3.4293437 -1.3525261
3.5991483 0.9262842 4.943498 -4.3735743 0.32201073 3.8892374 3.1087716 2.0922058
-3.3702195 2.1558974 -6.962304 -2.1772947 5.833256 1.3246623 -0.9006681 2.4226422
2.0430253 3.558034 -0.5186167 1.9353219 1.3851044 0.684977 0.6198424 2.4508939
2.6847806 1.6300274 4.174039 -4.3256598 6.3866415 -5.227379 -2.2990992 -2.8366609
-4.637005 14.907655 2.510351 -3.03015 0.746812 -1.9955097 -0.3455097 -0.5539612
-0.8193579 2.3040342 1.5463566 5.587805 0.98563206 0.5572701 -3.5583146 0.067772694
4.360744 1.6306145 4.655518 -1.022457 -1.5150082 2.2040627 2.6993082 -5.7333655
0.42370543 -2.6158204 -1.4897909 -1.741234 0.25904673 2.395465 11.513267 -14.851358
1.1676214 -4.590202 -6.835967 0.36872086 2.8645926 -0.4993098 5.579189 -0.3359525
2.4093418 -0.8746162 1.6275817 2.079115 -1.3428361 0.43859413 -0.35496157 0.72599286
2.1884148 1.9091787 -1.4540763 1.0689994 -2.2027953 0.46983647 -1.1062682 -1.6253468
3.1563268 2.6959562 -4.954772 -0.19772317 3.802387 1.27938 0.5041661 0.008455943
0.75853246 1.4607635 4.421239 0.6631861 9.273295 3.8350441 -3.0578704 -0.27573252
-0.96763265 0.684285 3.609924 8.065581 -1.3987813 1.1492869 -7.2565737 -0.645374
6.2218156 -0.48523468 0.90388095 -3.7006252 -0.6126475 -1.9309415 -0.11833035 3.534233
4.6466937 -2.5258195 1.3377144 -7.3993754 4.744058 -3.3515673 -4.2012463 -4.266073
0.129009 0.7646203 -5.4891686 -2.3982804 -0.69123214 -1.6451924 0.09741739 1.3965331
3.0024977 3.2077937 -4.3137984 2.9099 -1.2638276 -2.692802 -4.404134 2.0626953
-1.9382606 2.178178 0.7140917 -0.8951509 -1.5121844 2.7565315 -2.904776 -2.1652322
-1.3991046 -0.2482108 3.2321515 0.66595584 0.56699824 -9.933988 -14.967319 1.3940276
-14.8937025 -3.5847926 -1.6007082 2.019592 0.5553197 7.6164165 -3.6202452 3.5598068
-3.3645685 0.111117065 4.669885 -2.6250901 -2.2895932 -5.1372943 -1.1448858 2.4665625
-14.878727 5.2300873 8.076471 -3.877879 2.695389 0.6322739 -3.3242307 -1.631222
00000000: 5b47 5cbf 64d6 58c0 fb94 8abf 8e24 cbbe
00000010: ee2a 6ec1 4933 05c0 a7a7 863e 035b 70c1
00000020: 8064 90bf 05c2 0740 c875 6ec1 28ea 983f
00000030: a9b7 2d3d 538e edc0 2018 4840 0939 25c0
00000040: 6233 cebd 5c17 da3f 2050 8bbe 8c24 2e3e
00000050: 9ed1 a0c0 e72a 6e41 c957 0b40 2456 d53d
00000060: f407 fbbf eacf 373e 8d23 13c0 409e 6fc1
00000070: da5a c3be efcb 6640 f163 5941 d3bc 86bf
00000080: ab2b 05be b8e0 76c0 b54b 95c0 bbe6 67c0
00000090: 989f 9040 01c5 d5bf 7ec1 9540 5eb0 84bf
000000a0: 0868 bc40 e9fc e7bf 0e59 b3be 04ca 6dc1
000000b0: a6af f0bf 86cb cf40 7e2f 0140 9cfa 3fc0
000000c0: e403 b6bf 837e d7bf 598d 75bc de91 a23f
000000d0: b5ed 0d40 1d74 cebb a067 6e41 205f dfbf
000000e0: 3cf5 18c0 e014 bbbe dba1 9440 3a69 8040
000000f0: 2a38 6a41 57de 6dc1 4fdd d1bf 403c 363f
00000100: f3ce 43bf 0693 94c0 03a1 02bd c380 8540
00000110: 80d0 6f40 b3d1 62c0 5e7a 5b40 931f adbf
00000120: 7258 6640 f620 6d3f 2331 9e40 52f4 8bc0
00000130: 97de a43e 44e9 7840 1df6 4640 b3e6 0540
00000140: adb1 57c0 39fa 0940 32cb dec0 cc58 0bc0
00000150: 08aa ba40 898e a93f 2f92 66bf 920c 1b40
00000160: edc0 0240 d4b6 6340 10c4 04bf a1b8 f73f
00000170: 1a4b b13f a75a 2f3f fead 1e3f 72db 1c40
00000180: 72d3 2b40 bda4 d03f ba91 8540 ce6b 8ac0
00000190: 5e5f cc40 b046 a7c0 7124 13c0 da8b 35c0
000001a0: 5862 94c0 c185 6e41 97a9 2040 faed 41c0
000001b0: 122f 3f3f dd6c ffbf a6e6 b0be 67d0 0dbf
000001c0: 70c1 51bf 4c75 1340 03ef c53f 4ccf b240
000001d0: 6252 7c3f 41a9 0e3f 6dbb 63c0 69cc 8a3d
000001e0: 378b 8b40 fab7 d03f 01fa 9440 dfdf 82bf
000001f0: caeb c1bf 5d0f 0d40 77c1 2c40 bb77 b7c0
00000200: ebef d83e 9a69 27c0 78b1 bebf c1e0 debf
00000210: c6a1 843e 4c4f 1940 5736 3841 2a9f 6dc1
00000220: 9e74 953f efe2 92c0 3ec0 dac0 fbc8 bc3e
00000230: 7c55 3740 89a5 ffbe b788 b240 f701 acbe
00000240: a832 1a40 d9e6 5fbf 9954 d03f 3810 0540
00000250: 0ee2 abbf 698f e03e 86bd b5be abda 393f
00000260: fd0e 0c40 f85f f43f 2c1f babf f9d4 883f
00000270: 99fa 0cc0 688e f03e 329a 8dbf 5d0b d0bf
00000280: 4201 4a40 8c8a 2c40 7e8d 9ec0 f177 4abe
00000290: 4f5a 7340 b9c2 a33f 0811 013f cc8a 0a3c
000002a0: 2f2f 423f 4cfa ba3f ca7a 8d40 90c6 293f
000002b0: 6b5f 1441 5d71 7540 26b4 43c0 d02c 8dbe
000002c0: c6b6 77bf 4d2d 2f3f ff08 6740 9f0c 0141
000002d0: 440b b3bf d51b 933f da35 e8c0 3b37 25bf
000002e0: 1d19 c740 ae70 f8be be64 673f 0bd7 6cc0
000002f0: 77d6 1cbf 1729 f7bf 2f57 f2bd e030 6240
00000300: b7b1 9440 07a7 21c0 3a3a ab3f afc7 ecc0
00000310: 53cf 9740 1480 56c0 9c70 86c0 ac83 88c0
00000320: ef1a 043e 28be 433f 45a7 afc0 6d7d 19c0
00000330: 97f4 30bf aa95 d2bf c582 c73d 99c1 b23f
00000340: ec28 4040 7e4c 4d40 a30a 8ac0 cd3b 3a40
00000350: 1ac5 a1bf de56 2cc0 aaee 8cc0 3303 0440
00000360: ec18 f8bf 4567 0b40 b7ce 363f 9c28 65bf
00000370: 428f c1bf 036b 3040 dae7 39c0 2a93 0ac0
00000380: dc15 b3bf f92a 7ebe 92db 4e40 157c 2a3f
00000390: cc26 113f 9df1 1ec1 237a 6fc1 7f6f b23f
000003a0: 9b4c 6ec1 3e6d 65c0 02e4 ccbf ff40 0140
000003b0: 6f29 0e3f afb9 f340 19b2 67c0 e0d3 6340
000003c0: 1755 57c0 5891 e33d b36f 9540 7a01 28c0
000003d0: b288 12c0 b764 a4c0 9e8b 92bf 29dc 1d40
000003e0: 440f 6ec1 e05c a740 3a39 0141 2b2f 78c0
000003f0: 4181 2c40 b4dc 213f 32c0 54c0 e2cb d0bf

1.weight f4 [128, 256]
-0.07054731 0.10611488 0.099036306 0.07283832 -0.07785343 -0.042971924 -0.08728828 6.954264e-05
0.09956522 -0.121736534 0.024630658 0.14469653 0.16022338 -0.12143312 -0.020278381 0.069119595
0.02927947 0.13329864 0.087212406 -0.14420652 0.06522474 -0.10610593 -0.06115968 -0.06395642
0.15174435 -0.15642129 -0.06089018 0.10851974 0.030095391 -0.015794251 -0.018663203 -0.1670518
0.02427555 0.17180625 -0.0023147236 0.043672904 0.033609502 -0.016869046 -0.058166955 0.14104879
-0.04453781 0.06807529 0.060555834 -0.0012634004 -0.026387474 -0.02658589 -0.018947203 0.052043084
-0.06597262 0.07400038 0.04048561 -0.08790859 0.046963546 0.06363143 -0.04212251 -0.041562725
0.0019054874 0.036544576 0.110374466 -0.026047101 0.14660558 -0.021069115 0.02196135 0.087596126
0.12999961 -0.07808532 0.0338158 -0.093903475 -0.025050899 0.038295493 -0.08155732 0.05330026
0.00047714895 -0.026420588 0.11286957 -0.09354908 -0.050062202 -0.053668752 -0.06688072 -0.11233137
0.045160726 0.06549998 0.0027335105 -0.009269639 -0.092610605 -0.053575717 0.22281156 0.016117629
0.12689266 -0.06251434 -0.062013384 0.11702548 -0.059993833 0.087850645 0.08822365 0.10206624
0.09739345 -0.13658108 -0.084031306 0.018437928 -0.021984298 0.09041782 0.14836067 0.016183686
-0.11678615 -0.07526063 -0.16568965 0.11736722 0.16215998 0.14284556 0.11620838 0.027905649
-0.18532002 -0.21001108 0.25326917 -0.16923562 -0.1551071 -0.22608873 -0.14098153 -0.12692952
-0.028869376 0.041395307 -0.25035545 -0.020430118 0.0923273 -0.014130739 -0.034522068 -0.02578597
-0.0832529 0.0011569028 0.08158028 0.03128223 -0.055969767 0.10213296 -0.0143388985 0.065705284
0.022333339 -0.0028111958 -0.1154438 -0.03341058 -0.06303536 0.041570123 0.019383136 0.17295623
-0.022593465 0.121744595 0.0735423 -0.045632876 0.037082434 -0.027425831 -0.039619 -0.19503395
-0.05912387 0.15916483 0.1024184 -0.09813685 -0.122786455 -0.011709714 0.13264106 -0.036955822
0.17975774 -0.038094595 -0.016809514 0.05452933 -0.05871347 -0.046666984 0.013689354 -0.031278674
0.0873807 -0.067892686 -0.18918513 -0.09350706 0.08510111 0.13704379 0.09559368 -0.050594263
0.008763887 0.10246213 -0.15602373 -0.041647796 0.103928655 -0.151316 -0.1283412 0.021674488
0.048765607 -0.0053200168 -0.06865307 0.23117384 0.10705768 -0.25627428 -0.05235042 -0.15159777
-0.06599816 0.020822275 0.10342684 0.06498629 -0.11869521 0.057269283 0.19003996 0.11232571
0.07934735 0.090151854 0.07187729 -0.06232274 0.09547768 -0.05338633 -0.003005276 -0.059660442
0.052031662 -0.12746659 0.1500641 -0.13394116 -0.0098518925 -0.07029122 0.058410376 -0.14264126
-0.07873021 0.11323046 0.033147298 -0.015527478 -0.004333429 0.06521601 0.15990615 0.0039362684
-0.07132275 -0.19439831 0.04942627 0.022558572 0.05919567 -0.13611259 0.030206932 -0.015601766
0.014795649 0.03345329 0.11613845 0.030176593 0.028178586 0.13437045 -0.10683257 0.07028855
0.089827344 -0.120244 0.03907995 0.11442111 -0.06216856 0.052678112 0.22933781 -0.05860536
0.052444734 0.09424373 0.14987181 0.11485021 -0.041307945 0.03285448 0.079061344 0.07115233
00000000: 1c7b 90bd c252 d93d 8cd3 ca3d 422c 953d
00000010: 9e71 9fbd 5403 30bd 33c4 b2bd 6cd7 9138
00000020: dae8 cb3d 0151 f9bd 3cc6 c93c 542b 143e
00000030: 9911 243e edb1 f8bd d91e a6bc 938e 8d3d
00000040: 80db ef3c 707f 083e 6b9c b23d e0aa 13be
00000050: 8c94 853d 114e d9bd 9382 7abd 95fb 82bd
00000060: df62 1b3e e72c 20be fb67 79bd 993f de3d
00000070: 9c8a f63c f262 81bc 93e3 98bc a10f 2bbe
00000080: 85dd c63c faed 2f3e 9eb2 17bb 5ce2 323d
00000090: 1eaa 093d f430 8abc 7940 6ebd 186f 103e
000000a0: 476d 36bd 0f6b 8b3d 6509 783d af98 a5ba
000000b0: 8b2a d8bc a7ca d9bc 2a37 9bbc 212b 553d
000000c0: a71c 87bd 838d 973d 3dd4 253d 6b09 b4bd
000000d0: d95c 403d 3251 823d a788 2cbd ad3d 2abd
000000e0: 8cc1 f93a c4af 153d 020c e23d bb60 d5bc
000000f0: c61f 163e 2399 acbc 4ae8 b33c 9965 b33d
00000100: 9e1e 053e 32eb 9fbd 7082 0a3d 7750 c0bd
00000110: 8b37 cdbc bcdb 1c3d 8607 a7bd 6051 5a3d
00000120: d929 fa39 fd6f d8bc 2928 e73d a996 bfbd
00000130: 060e 4dbd c4d3 5bbd c2f8 88bd fd0d e6bd
00000140: 74fa 383d da24 863d b224 333b afdf 17bc
00000150: a1aa bdbd 3672 5bbd b728 643e 1e09 843c
00000160: 26f0 013e 8507 80bd bf01 7ebd 0eab ef3d
00000170: 18bc 75bd 0aeb b33d 9aae b43d 1b08 d13d
00000180: 3876 c73d e9db 0bbe 9b18 acbd 230b 973c
00000190: 6a18 b4bc fa2c b93d dceb 173e a693 843c
000001a0: 942d efbd 3f22 9abd 8caa 29be 3a5e f03d
000001b0: 440d 263e 1b46 123e a9fe ed3d 639a e43c
000001c0: 88c4 3dbe 250d 57be 7fac 813e 1a4c 2dbe
000001d0: 65d4 1ebe ce83 67be 765d 10be d0f9 01be
000001e0: 787f ecbc 208e 293d 972e 80be 105d a7bc
000001f0: 1816 bd3d 9d84 67bc 0367 0dbd 193d d3bc
00000200: 7f80 aabd 37a3 973a 9013 a73d cc21 003d
00000210: 8e40 65bd 162b d13d b3ed 6abc 7e90 863d
00000220: 68f4 b63c 0a3c 38bb cd6d ecbd 88d9 08bd
00000230: af18 81bd 6f45 2a3d 62c9 9e3c 701b 313e
00000240: ee15 b9bc 3b55 f93d 589d 963d 8ae9 3abd
00000250: c0e3 173d 23ac e0bc 8847 22bd fbb6 47be
00000260: df2b 72bd 1bfc 223e bdc0 d13d f9fb c8bd
00000270: 7777 fbbd 1ada 3fbc 0fd3 073e fd5e 17bd
00000280: 6a12 383e 1409 1cbd 1bb4 89bc 265a 5f3d
00000290: 897d 70bd e125 3fbd 5049 603c 111e 00bd
000002a0: a7f4 b23d 520b 8bbd bfb9 41be a180 bfbd
000002b0: 7e49 ae3d 3555 0c3e 9fc6 c33d ee3b 4fbd
000002c0: 6896 0f3c aad7 d13d afc4 1fbe e196 2abd
000002d0: 8cd8 d43d 95f2 1abe e06b 03be b28e b13c
000002e0: 72be 473d 8953 aebb fb99 8cbd d6b8 6c3e
000002f0: 0f41 db3d 6236 83be 656d 56bd 723c 1bbe
00000300: 0b2a 87bd 7a93 aa3c 73d1 d33d 8817 853d
00000310: 7916 f3bd 3293 6a3d d699 423e 060b e63d
00000320: dd80 a23d 89a1 b83d 6734 933d 2146 7fbd
00000330: cd89 c33d a0ab 5abd 2af4 44bb 825e 74bd
00000340: 271f 553d 9a86 02be 67aa 193e df27 09be
00000350: d569 21bc d8f4 8fbd b83f 6f3d 8d10 12be
00000360: 4e3d a1bd 5fe5 e73d 76c5 073d f766 7ebc
00000370: 70ff 8dbb f98f 853d 70be 233e d0fb 803b
00000380: a911 92bd 5a10 47be 3373 4a3d c1cc b83c
00000390: 2977 723d 1961 0bbe 8774 f73c 8d9e 7fbc
000003a0: 7369 723c 5106 093d ffd9 ed3d e734 f73c
000003b0: c7d6 e63c 6898 093e 09cb dabd 71f3 8f3d
000003c0: 66f7 b73d 7c42 f6bd 4c12 203d 9d55 ea3d
000003d0: 76a4 7ebd 01c5 573d 88d7 6a3e 2d0c 70bd
000003e0: 4ad0 563d db02 c13d ff77 193e 9636 eb3d
000003f0: 8532 29bd 6b92 063d eaea a13d 50b8 913d

1.bias f4 [128]
0.14799763 -0.6164168 0.9305806 -0.5374869 0.16873452 3.2407992 -1.11051 0.32715482
-0.18494366 -1.123523 0.31130177 -1.1981354 -0.5185912 0.68249816 -0.21839757 -0.057775646
0.22262198 0.81478745 0.30123165 -0.03338459 -0.3455171 -0.54824394 -0.3002535 -0.7342872
1.1350359 0.35558635 -0.12806699 -0.321473 -1.0323898 0.24647702 -0.4359282 0.10912671
0.06142208 -0.5992444 0.06890025 -9.578149 -0.018980667 -0.007650083 -0.29103148 0.16790675
-1.2511547 0.12403575 -0.23467104 0.29813024 -0.08586634 0.41546857 -0.22723977 -1.7032562
-0.4630758 0.14100526 0.545573 0.7713293 -1.8182374 -0.6489962 0.47776368 0.20906454
-1.0261983 -0.15191977 0.6794321 0.38265434 -0.21278797 0.40998033 -0.3765011 -1.9141887
-0.78453994 -1.243016 -0.2676488 0.42197126 -0.39520532 0.2689716 0.56206334 -0.4320669
-0.07461333 -0.64776886 -0.22053358 -0.91079384 -0.47295272 -12.660485 -0.28878835 -0.3987167
0.11285236 -0.7774217 0.9605278 -0.125566 -0.28872797 -0.95512056 -0.30505604 0.7151827
0.19605058 -1.0746068 0.13484879 0.3709306 -0.2045021 0.14655164 -1.9373567 -0.78964007
0.035724252 0.21892278 -0.21793292 -0.29503807 0.25606552 1.2183182 0.3561583 1.2436596
0.3291627 -0.2758077 0.7046928 1.0240808 0.56397384 -0.50358665 0.5026485 -0.0049187127
1.5020268 0.7783629 1.3743035 0.9299793 -0.62869513 -0.7439825 0.035819847 0.9156937
-0.7352511 0.32587108 0.12080037 -0.2644852 0.058463134 0.7696242 -0.734586 0.71651596
00000000: b18c 173e 7ecd 1dbf 883a 6e3f be98 09bf
00000010: bec8 2c3e 4169 4f40 3125 8ebf d680 a73e
00000020: df61 3dbe 9acf 8fbf f262 9f3e 805c 99bf
00000030: 65c2 04bf 33b8 2e3f 9da3 5fbe 28a6 6cbd
00000040: 04f7 633e e995 503f 093b 9a3e 48be 08bd
00000050: 9ee7 b0be b759 0cbf d4ba 99be 3ffa 3bbf
00000060: db48 913f 6a0f b63e fe23 03be 1c98 a4be
00000070: 5925 84bf 7964 7c3e fb31 dfbe d37d df3d
00000080: b895 7b3d 1568 19bf 931b 8d3d 1940 19c1
00000090: 587d 9bbc 8cad fabb 1402 95be bfef 2b3e
000000a0: d625 a0bf 7506 fe3d 9b4d 70be 87a4 983e
000000b0: b1da afbd 4cb8 d43e 8bb1 68be 4d04 dabf
000000c0: 4518 edbe af63 103e acaa 0b3f d675 453f
000000d0: 01bc e8bf 9d24 26bf 719d f43e 0415 563e
000000e0: 775a 83bf db90 1bbe 43ef 2d3f 45eb c33e
000000f0: 17e5 59be f1e8 d13e c1c4 c0be 2304 f5bf
00000100: 9cd7 48bf 261b 9fbf 4309 89be 9e0c d83e
00000110: 5a58 cabe a5b6 893e 62e3 0f3f df37 ddbe
00000120: e0ce 98bd 2ed4 25bf 8ed3 61be c929 69bf
00000130: dc26 f2be 5991 4ac1 11dc 93be 9824 ccbe
00000140: 231f e73d 1c05 47bf 26e5 753f 6094 00be
00000150: 27d4 93be c882 74bf 4e30 9cbe 3716 373f
00000160: 7cc1 483e b78c 89bf cd15 0a3e 9eea bd3e
00000170: 0069 51be a211 163e 4efb f7bf da25 4abf
00000180: 9853 123d 4b2d 603e cf29 5fbe 3b0f 97be
00000190: 051b 833e daf1 9b3f 615a b63e 3d30 9f3f
000001a0: 0388 a83e ab36 8dbe bf66 343f 1415 833f
000001b0: 9760 103f 0eeb 00bf 92ad 003f 272d a1bb
000001c0: 6a42 c03f ca42 473f 2de9 af3f 2013 6e3f
000001d0: 2af2 20bf a375 3ebf d5b7 123d e76a 6a3f
000001e0: 6b39 3cbf 93d8 a63e 2f66 f73d 9b6a 87be
000001f0: 0a77 6f3d 1706 453f d40d 3cbf 976d 373f

2.weight f4 [64, 128]
-0.04466019 0.003417042 0.082427606 -0.03978264 -0.00877784 -0.044368837 0.043068532 -0.13113774
0.11069447 0.044662844 0.02500222 0.0761055 0.04735629 0.063329965 0.0052346634 -0.013771759
0.018660571 0.033703428 -0.0053495564 -0.019254716 0.0864355 -0.12400235 0.009847965 -0.021177761
-0.0651125 0.050024007 -0.023860496 0.03453044 -0.011309867 0.103156336 0.01599761 -0.030712599
0.038638096 0.051783096 0.02330638 0.015867155 0.04473876 -0.06768988 0.0064323787 -0.095831454
0.063742206 0.0072153816 -0.11409189 0.096451476 0.09985317 -0.040351696 0.005897248 0.0632416
0.017570168 0.016808394 -0.062532544 0.00956167 0.01880353 -0.065552786 -0.05011908 -0.047176458
0.106720224 -0.012055128 0.04287841 -0.049205538 -0.015216253 0.049677927 -0.11124576 -0.017434496
0.06460488 -0.05850161 0.053612515 0.07568037 0.008314578 -0.06379045 0.05470961 -0.1102451
0.003827824 0.014910768 -0.032765705 0.019296497 -0.011806111 0.020686995 -0.034551315 0.041380037
-0.04547271 -0.075024016 -0.010375286 0.00362933 0.004536709 -0.09962104 0.0362762 -0.063111365
-0.0002457758 -0.05609502 0.008864335 0.053325526 0.13609464 -0.050882865 0.059931315 0.048458595
0.04137478 0.034754917 0.08623333 -0.026917031 -0.046009887 -0.074947 -0.10614843 0.010255778
-0.024011593 -0.08805638 0.07274925 -0.06330695 0.03007912 -0.07623459 0.058898494 -0.06707543
0.063770734 0.055771317 0.09566657 0.028035851 0.07839636 -0.06761738 0.071656264 0.0068497136
-0.023037545 0.08847057 0.024284603 0.11080413 -0.11620428 0.013524163 -0.09865824 0.0407015
-0.078197725 -0.003233226 0.052688006 -0.008292259 0.012098919 -0.06256379 0.037601594 0.020300189
-0.10930253 -0.06922981 0.02509366 -0.006981753 -0.01384145 0.0046689105 0.027317993 0.110967495
-0.09111815 0.09401656 0.08053332 -0.04553146 0.024156343 0.01314866 -0.06048297 0.026717627
0.11270064 -0.09088084 -0.055779308 0.08201706 -0.0058003985 -0.0357831 0.08947678 -0.011473182
0.019770514 -0.11504275 0.012895969 -0.031665772 0.039368942 0.047874246 -0.053242426 0.10285557
0.049235296 -0.07206488 -0.003150271 -0.009162237 -0.043609723 0.12868977 0.03742307 0.051595192
0.045746695 -0.019830842 0.030223405 0.055732235 -0.029554356 0.09267211 -0.039136276 -0.022920338
0.050953757 -0.027459648 0.00419867 -0.00040803524 -0.056230664 3.8528706e-05 0.014396381 0.029721968
-0.013728063 -0.013821536 -0.03702286 -0.06351419 -0.05747707 -0.051287588 -0.026692493 -0.045563366
-0.002733944 -0.045286912 -0.067224704 -0.0031026958 -0.03401576 -0.04467226 -0.036328673 0.014383057
0.044278834 0.05121589 0.06548713 0.072303265 0.0009582261 0.13211915 0.029709008 0.113245554
-0.011058212 0.05035086 0.013623336 0.06781307 -0.008453013 0.10478825 -0.06260452 -0.036923137
-0.08487996 -0.061192106 0.06087634 -0.055356123 -0.05589433 0.03731892 0.094267175 -0.06671688
0.011184191 -0.06852168 -0.07452377 0.057566985 -0.024757082 0.0069713923 0.055109918 -0.026644098
-0.012617312 0.0140335355 -0.046062935 -0.060951676 -0.121676624 0.022813454 -0.014379771 0.02689418
-0.026655965 -0.18404303 0.013620796 -0.15312552 0.07588461 -0.012404618 0.060664993 0.050137594
00000000: 9aed 36bd 74f0 5f3b cecf a83d 1ff3 22bd
00000010: eed0 0fbc 19bc 35bd a168 303d f948 06be
00000020: c8b3 e23d 63f0 363d 75d1 cc3c 33dd 9b3d
00000030: abf8 413d 24b3 813d 8a87 ab3b f2a2 61bc
00000040: 0ede 983c 9b0c 0a3d 554b afbb 11bc 9dbc
00000050: 1805 b13d f2f4 fdbd 5c59 213c fc7c adbc
00000060: b459 85bd f9e5 4c3d 1677 c3bc ca6f 0d3d
00000070: 054d 39bc a143 d33d 6b0d 833c fd98 fbbc
00000080: fb42 1e3d 831a 543d 05ed be3c d6fb 813c
00000090: fd3f 373d fea0 8abd b4c6 d23b 4843 c4bd
000000a0: 468b 823d 026f ec3b 02a9 e9bd 5a88 c53d
000000b0: d27f cc3d d247 25bd b43d c13b d084 813d
000000c0: 50ef 8f3c c2b1 893c 1011 80bd 8da8 1c3c
000000d0: dc09 9a3c 8a40 86bd aa49 4dbd 1a3c 41bd
000000e0: 2290 da3d df82 45bc 46a1 2f3d bf8b 49bd
000000f0: 974d 79bc 157b 4b3d d1d4 e3bd cad2 8ebc
00000100: 904f 843d 629f 6fbd cc98 5b3d 4ffe 9a3d
00000110: de39 083c 91a4 82bd 2f17 603d 2fc8 e1bd
00000120: 3bdc 7a3b 4b4c 743c 5535 06bd b013 9e3c
00000130: 6b6e 41bc c677 a93c ae85 0dbd 1d7e 293d
00000140: 9841 3abd 31a6 99bd 1bfd 29bc 0eda 6d3b
00000150: aca8 943b 1e06 ccbd 5a96 143d 8840 81bd
00000160: 78db 80b9 e4c3 65bd b73b 113c de6b 5a3d
00000170: 655c 0b3e 8d6a 50bd 8a7a 753d 857c 463d
00000180: 9a78 293d 2c5b 0e3d 1a9b b03d 1b81 dcbc
00000190: dd74 3cbd d07d 99bd 5964 d9bd da07 283c
000001a0: f6b3 c4bc e756 b4bd 8ffd 943d 13a7 81bd
000001b0: 7d68 f63c e120 9cbd 8c3f 713d d85e 89bd
000001c0: 3b9a 823d 7770 643d d6ec c33d 71ab e53c
000001d0: 458e a03d fb7a 8abd 85c0 923d 9073 e03b
000001e0: 3cb9 bcbc 0f30 b53d 81f0 c63c 47ed e23d
000001f0: 82fc edbd 7394 5d3c 550d cabd 9eb6 263d
00000200: 2126 a0bd 88e4 53bb 61cf 573d 41dc 07bc
00000210: 8b3a 463c 7221 80bd 2104 1a3d 954c a63c
00000220: 01da dfbd 5cc8 8dbd 3891 cd3c 30c7 e4bb
00000230: 40c7 62bc a9fd 983b fcc9 df3c ed42 e33d
00000240: 279c babd c18b c03d a7ee a43d 327f 3abd
00000250: 86e3 c53c 7a6d 573c febc 77bd edde da3c
00000260: 98cf e63d bc1f babd d878 64bd 8ff8 a73d
00000270: 4511 bebb 4d91 12bd 9a3f b73d 03fa 3bbc
00000280: c6f5 a13c 899b ebbd 9d49 533c f8b3 01bd
00000290: 5441 213d c917 443d bb14 5abd f1a5 d23d
000002a0: f3aa 493d c096 93bd c774 4ebb 351d 16bc
000002b0: 1ca0 32bd 40c7 033e ef48 193d 7b55 533d
000002c0: e360 3b3d 4a74 a2bc 1397 f73c 7c47 643d
000002d0: fa1b f2bc e0ca bd3d 5c4d 20bd 6fc3 bbbc
000002e0: e3b4 503d 0ef3 e0bc ff94 893b 90ed d5b9
000002f0: 2052 66bd e299 2138 ccde 6b3c 7c7b f33c
00000300: abeb 60bc b973 62bc 48a5 17bd ba13 82bd
00000310: 136d 6bbd ef12 52bd 37aa dabc a7a0 3abd
00000320: f82b 33bb c57e 39bd 1bad 89bd 9956 4bbb
00000330: 1c54 0bbd 42fa 36bd 60cd 14bd eaa6 6b3c
00000340: b95d 353d c1c7 513d 1e1e 863d bc13 943d
00000350: 7731 7b3a 3e4a 073e 4e60 f33c 49ed e73d
00000360: 812d 35bc b43c 4e3d 6a34 5f3c 94e1 8a3d
00000370: 827e 0abc 399b d63d cc36 80bd b73c 17bd
00000380: 8bd5 adbd 93a4 7abd 7859 793d 1abd 62bd
00000390: 74f1 64bd b9db 183d 260f c13d dca2 88bd
000003a0: e63d 373c 1855 8cbd eb9f 98bd 5ccb 6b3d
000003b0: 5dcf cabc 4770 e43b f0ba 613d b944 dabc
000003c0: d8b8 4ebc eaec 653c 7dac 3cbd 77a8 79bd
000003d0: 9831 f9bd 48e3 ba3c 2299 6bbc 2f51 dc3c
000003e0: 9c5d dabc c775 3cbe c229 5f3c f0cc 1cbe
000003f0: 6469 9b3d bd3c 4bbc db7b 783d 145d 4d3d

2.bias f4 [64]
0.7901248 0.24312115 -1.088679 0.22078918 0.9827077 1.9113038 -0.2782772 -0.6737358
-0.3755253 -0.49597186 -0.49700588 0.7061525 -1.370871 0.9677823 1.1541574 0.5719747
0.7724339 -0.86246735 1.8542569 0.37806216 0.6110847 0.79128873 0.69965494 11.627639
0.9459898 -0.83274096 -1.0606848 -0.2779668 -0.3523788 -0.7903012 -0.52065295 -0.13355985
-0.09322469 -0.59816724 -1.0872227 -1.9227108 -0.78428817 0.21264319 0.38843802 -0.18607184
-0.3984977 1.3398187 0.0210158 0.8692409 0.4232584 1.3456346 1.285095 -0.6810886
1.4098417 -0.18947369 -0.70152324 0.3154179 0.35556677 -0.26476836 0.23666926 1.3057288
-0.17379142 0.63582456 0.72757167 -1.0155332 1.8767749 -0.017141767 -0.30046666 1.1704545
00000000: 9e45 4a3f c0f4 783e d559 8bbf 8f16 623e
00000010: bb92 7b3f 9aa5 f43f 597a 8ebe f379 2cbf
00000020: da44 c0be 06f0 fdbe 8e77 febe 69c6 343f
00000030: b378 afbf 95c0 773f 6ebb 933f ef6c 123f
00000040: 3abe 453f a9ca 5cbf 4a58 ed3f 5d91 c13e
00000050: 0c70 1c3f e691 4a3f 961c 333f cf0a 3a41
00000060: 632c 723f 832e 55bf 85c4 87bf aa51 8ebe
00000070: fe6a b4be 2e51 4abf 8349 05bf eac3 08be
00000080: 96ec bebd 7d21 19bf 1d2a 8bbf 631b f6bf
00000090: 1cc7 48bf 23bf 593e 59e1 c63e 9e89 3ebe
000000a0: e407 ccbe 2e7f ab3f 5429 ac3c 9286 5e3f
000000b0: 53b5 d83e c13d ac3f fe7d a43f d35b 2ebf
000000c0: b175 b43f 6405 42be 0797 33bf 747e a13e
000000d0: d90c b63e b88f 87be 6d59 723e 1f22 a73f
000000e0: 61f6 31be 66c5 223f 2342 3a3f fefc 81bf
000000f0: 293a f03f e46c 8cbc c4d6 99be 74d1 953f

3.weight f4 [32, 64]
0.0379257 -0.009721673 -0.02817949 -0.010904614 0.003122565 0.018368896 0.024343766 -0.048401527
-0.011449102 0.0011728287 -0.0052538454 -0.040391926 -0.04543419 0.019742303 -0.013227102 -0.059731178
-0.018409029 0.0499096 -0.01519023 -0.010136249 -0.02880887 -0.013594234 -0.029032089 -0.005318644
0.008128185 -0.007854626 0.049290657 0.016742114 -0.020205373 0.023416048 -0.04178537 0.033192035
0.0019447486 -0.050993036 -0.012404173 0.023278126 -0.038688462 -0.006113516 0.009931662 -0.003670091
0.0009608751 0.019922366 0.040566586 0.02090352 -0.019886797 -0.011498673 0.012335136 0.001762352
-0.04515125 0.031142186 0.03449618 0.01434358 0.030639656 0.0065488406 -0.003030521 0.011185094
0.020500233 0.0077436655 0.030524952 -0.016869621 -0.013545832 0.00391533 0.02227641 0.009533582
0.030483307 0.021473756 0.015362147 -0.108597524 -0.001600924 -0.05522563 -0.014755165 0.04452935
-0.05670296 0.015829448 -0.008577379 -0.023435758 0.029321602 -0.029536663 -0.028744804 0.0108326785
-0.040808 0.011246387 -0.021166077 0.0666599 0.034816287 0.0034521376 0.06248961 0.018088747
-0.013751206 -0.0096072825 -0.080123946 0.0024408568 -0.00029765305 -0.028375134 0.03859328 0.00049060344
0.0039693597 0.08321134 -0.072071895 -0.03398821 0.019010803 -0.040409856 0.0677505 -0.04899599
0.06644506 -0.009044296 -0.030561458 -0.045747004 -0.040261924 -0.015130629 0.04883381 -0.011425002
0.0096026575 -0.018237945 0.005068672 0.0013176027 -0.026490327 0.034570094 -0.041218497 -0.031440843
0.009796889 0.028195564 -0.057489995 -0.038194664 -0.032484125 0.064005196 -0.025228385 0.030752048
-0.07727125 0.040462784 -0.025203744 -0.061876908 0.031428084 -0.011846469 0.034915548 -0.061126396
-0.044294104 0.005963486 -0.0037222286 -0.026471265 0.019979522 0.00011222479 -0.049158964 -0.0039062877
-0.07675788 -0.012597725 -0.012017463 0.07693509 0.058364876 0.038017064 0.030499626 0.00037915361
-0.016884904 0.049113523 -0.07843906 -0.011670926 0.041240066 -0.025731873 -0.008392866 -0.053829204
-0.054317065 0.050270088 -0.03905741 -0.059150964 0.030992163 0.0035530012 0.024407672 -0.040927976
0.04380175 -0.016316397 -0.013637105 -0.09926644 0.034377694 -0.024013033 0.05686067 -0.0012884493
-0.043535985 0.017922625 -0.008413151 -0.0037436865 -0.06219193 0.017499112 -0.061231773 -0.000508492
0.08771453 0.0018112169 -0.02301461 -0.046810117 -0.025949975 0.023467138 -0.004726625 -0.065215915
0.0007305051 -0.0027096705 0.042321082 0.0071580396 0.031117084 0.0052072 0.032171864 0.021033073
0.007251508 -0.101816036 0.0043036346 0.024719931 0.013095394 -0.00066763145 -0.03200228 -0.0122321155
0.012646001 0.11100477 0.031034091 -0.014359068 -0.0015333238 -0.015790759 -0.030704089 -0.0047124913
-0.014886629 0.005758867 0.03928835 -0.022199163 0.007566716 0.024012215 0.018259227 -0.0033666415
0.03642931 0.009628722 0.051547837 -0.027771935 0.03957438 0.012118701 0.05279029 0.044719774
-0.029263796 0.06009329 0.025579358 -0.034564592 -0.0065451455 0.0077985795 -0.004068736 -0.015991213
0.041250616 -0.002256621 0.03348361 0.041033998 0.020834453 0.0007318115 0.015721172 -0.02522984
0.006174003 0.04880202 0.012939959 0.009606454 0.0032590323 0.0321352 -0.019916428 0.004820768
00000000: fb57 1b3d a747 1fbc acd8 e6bc 44a9 32bc
00000010: f3a3 4c3b 5e7a 963c 946c c73c ae40 46bd
00000020: 0495 3bbc 9ab9 993a 7328 acbb 0172 25bd
00000030: 3419 3abd 9cba a13c 7db6 58bc aea8 74bd
00000040: 88ce 96bc 026e 4c3d 71e0 78bc 8212 26bc
00000050: 9400 ecbc 5aba 5ebc b4d4 edbc 0548 aebb
00000060: 142c 053c b0b0 00bc 00e5 493d c226 893c
00000070: bd85 a5bc 03d3 bf3c 2327 2bbd 5ff4 073d
00000080: efe6 fe3a 13de 50bd df3a 4bbc c5b1 be3c
00000090: cb77 1ebd e453 c8bb 69b8 223c e985 70bb
000000a0: 3de3 7b3a 3b34 a33c 2629 263d dc3d ab3c
000000b0: a3e9 a2bc ee64 3cbc 4f19 4a3c b8fe e63a
000000c0: 84f0 38bd e61d ff3c de4b 0d3d 5601 6b3c
000000d0: 0400 fb3c a897 d63b b59b 46bb af41 373c
000000e0: 1bf0 a73c 93be fd3b 770f fa3c 2932 8abc
000000f0: 56ef 5dbc 2b4c 803b 057d b63c be32 1c3c
00000100: 21b8 f93c bbe9 af3c 84b1 7b3c 6168 debd
00000110: 18d6 d1ba 4534 62bd a6bf 71bc 6864 363d
00000120: 5d41 68bd c2ac 813c 2388 0cbc 59fc bfbc
00000130: db33 f03c dff6 f1bc 397a ebbc 8c7b 313c
00000140: 4a26 27bd c442 383c 7b64 adbc fc84 883d
00000150: 869b 0e3d 423d 623b 1bf5 7f3d da2e 943c
00000160: bd4c 61bc dd67 1dbc 0618 a4bd c8f6 1f3b
00000170: 510e 9cb9 f872 e8bc fd13 1e3d d79b 003a
00000180: 6711 823b b56a aa3d 6e9a 93bd 3937 0bbd
00000190: 8bbc 9b3c ce84 25bd c6c0 8a3d 05b0 48bd
000001a0: 5914 883d 872e 14bc 065c fabc 3661 3bbd
000001b0: b0e9 24bd 75e6 77bc f605 483d ee2f 3bbc
000001c0: 7754 1d3c be67 95bc 1a17 a63b 69b3 ac3a
000001d0: 3e02 d9bc 5f99 0d3d bad4 28bd 1dc8 00bd
000001e0: 2183 203c 62fa e63c a17a 6bbd 0272 1cbd
000001f0: 130e 05bd 2815 833d c2ab cebc b8eb fb3c
00000200: 6440 9ebd 4ebc 253d 1578 cebc a472 7dbd
00000210: bcba 003d b117 42bc 9b03 0f3d ac5f 7abd
00000220: bc6d 35bd 5969 c33b a2f0 73bb 44da d8bc
00000230: 18ac a33c 3a5a eb38 e95a 49bd 5100 80bb
00000240: 3c33 9dbd b066 4ebc e5e4 44bc 2590 9d3d
00000250: 0210 6f3d c8b7 1b3d 5ada f93c 23c9 c639
00000260: 3652 8abc 432b 493d a8a4 a0bd 6937 3fbc
00000270: 58eb 283d a6cb d2bc 3b82 09bc 037c 5cbd
00000280: 927b 5ebd 02e8 4d3d aafa 1fbd 4848 72bd
00000290: 47e3 fd3c 78d9 683b 99f2 c73c 18a4 27bd
000002a0: 7769 333d f7a9 85bc 2a6e 5fbc 344c cbbd
000002b0: a0cf 0c3d fbb6 c4bc bce6 683d 2fe1 a8ba
000002c0: ca52 32bd 78d2 923c 50d7 09bc a358 75bb
000002d0: f7bc 7ebd 4c5a 8f3c 2bce 7abd 524c 05ba
000002e0: ada3 b33d 5b66 ed3a 2389 bcbc f7bb 3fbd
000002f0: 0b95 d4bc 283e c03c cee1 9abb ec8f 85bd
00000300: 5e7f 3f3a ba94 31bb df58 2d3d fd8d ea3b
00000310: 41e9 fe3c 29a1 aa3b a5c6 033d 8d4d ac3c
00000320: 0f9e ed3b ed84 d0bd 8105 8d3b 7481 ca3c
00000330: 108e 563c fd03 2fba d314 03bd 3669 48bc
00000340: 2c31 4f3c 7856 e33d 353b fe3c 4c42 6bbc
00000350: cff9 c8ba 9f5b 81bc 2487 fbbc 3e6b 9abb
00000360: 0ce7 73bc e1b4 bc3b d2ec 203d 05db b5bc
00000370: 37f2 f73b 44b5 c43c 6094 953c dfa2 5cbb
00000380: e636 153d cac1 1d3c d323 533d f881 e3bc
00000390: bf18 223d 848d 463c a23a 583d 152c 373d
000003a0: a1ba efbc 6224 763d cd8b d13c 9a93 0dbd
000003b0: a978 d6bb 3a8b ff3b 0853 85bb 0100 83bc
000003c0: 68f6 283d d1e3 13bb 1c26 093d 4413 283d
000003d0: 04ad aa3c 0ad7 3f3a b0c9 803c cfae cebc
000003e0: 4a4f ca3b a0e4 473d 1f02 543c 6364 1d3c
000003f0: 7d95 553b 33a0 033d c727 a3bc 88f7 9d3b

3.bias f4 [32]
-0.29535815 -0.00985122 -0.010919546 -0.22030726 -0.3346269 1.1177441 -1.039548 0.594543
0.0024327007 0.36738434 -0.076183006 0.19212984 -0.08389415 0.19004552 -8.909115 0.09856818
-0.0618435 0.55444515 -0.11132075 -0.58939093 0.49648485 -0.74318045 0.076200016 0.6046602
1.3582624 1.6614065 -0.27257547 -0.3505931 0.9310398 -0.6300602 -0.08243487 -0.2297819
00000000: 2f39 97be 0367 21bc e5e7 32bc 3a98 61be
00000010: 3854 abbe 3d12 8f3f e90f 85bf f833 183f
00000020: f26d 1f3b cd19 bc3e d605 9cbd afbd 443e
00000030: b2d0 abbd 4b9b 423e bc8b 0ec1 1dde c93d
00000040: 9c4f 7dbd 1ef0 0d3f 22fc e3bd 53e2 16bf
00000050: 4333 fe3e 1341 3ebf c10e 9c3d 03cb 1a3f
00000060: 8bdb ad3f f8a8 d43f 038f 8bbe f080 b3be
00000070: a058 6e3f a04b 21bf 9dd3 a8bd f24b 6bbe

4.weight f4 [16, 32]
0.02605221 -0.013375038 -0.023867788 0.023484737 -0.00817267 -0.003660807 0.0147458725 0.0011674172
-0.013553719 0.010550502 -0.008195261 -0.00071101135 0.033261523 0.0019901532 -0.00423733 -0.0017206732
-0.01803912 0.014194981 -0.012748447 0.048068713 -0.012722569 -0.012225984 0.0051162904 0.02367154
0.014215637 -0.004682529 0.017815094 -0.0049809073 -0.004367802 0.010891817 -0.0030610205 0.0022851392
-0.025797054 -0.046466608 -0.045187403 -0.013776551 0.001838175 -0.0096161235 -0.0014463972 0.013449448
0.005549432 -0.0067875776 -0.0010593402 0.026400555 0.008761472 0.022849372 -0.009814884 -0.0064125108
-0.0142358495 -0.0044009495 -0.04180534 -0.019832676 0.019079084 0.025141895 -0.0021537733 0.0156745
0.018650627 -0.03283465 0.008908958 -0.01062897 0.012264452 0.00023875345 0.000555041 0.027030155
-0.0023773974 -0.006479569 -0.020911612 0.0076452442 0.009839846 -0.0012929948 -0.0046751397 0.014652209
-0.010464672 -0.028926056 0.0068625407 -0.001360372 -0.023238914 -0.02933075 0.0026789408 0.01555657
0.019655244 0.007823942 0.018164063 0.019567274 0.010430825 -0.032893956 -0.016180824 -0.02331785
-0.0016191419 -0.043343764 -0.008778486 0.0011801973 -0.011569721 -0.014299505 -0.009422908 -0.017307522
-0.014435997 -0.000104262544 0.014038196 -0.010474852 -0.028716886 -0.009830524 0.004421633 -0.0024424887
0.006766 0.009509678 -0.017281666 0.034669243 -0.0057037934 -0.003952776 0.017099023 -0.011655941
0.018088344 -0.012806068 -0.02887312 -0.0018508914 0.010504601 -0.0016719109 -0.015729768 0.005302105
-0.005495613 -0.026471233 -0.020882415 0.0012427539 -0.0163729 0.012590164 0.011012579 -0.018397834
-0.021540148 -0.0016022591 -0.026854137 0.012326014 0.019528301 0.018899066 -0.021140203 0.02987891
0.011237109 0.03705536 -0.0037855469 0.030997623 -0.036630053 0.0061199195 0.002613603 -0.0037823166
0.014082169 -0.015863437 0.028189927 0.01873791 -0.02315644 0.0064108884 -0.0020284012 0.0068610148
-0.006494159 -0.005807133 -0.0028303708 -0.0068487646 0.011385791 0.020949053 -0.03048717 -0.016830621
-0.067670025 -0.01338779 0.030442111 0.015251793 0.028008914 -0.0038816344 -0.003447075 -0.012394543
0.015751354 0.006305167 -0.010658569 -0.018133495 -0.015033677 -0.0058652186 -0.0024376381 0.017402867
0.011764215 0.0123051405 -0.0096416855 -0.0187042 -0.017576974 0.013004772 -0.01744021 0.009536805
-0.008249945 0.036943965 -0.010412436 -0.014891014 0.01725615 -0.009809428 0.0016542668 -0.01216875
0.013429795 -0.034495816 -0.021270426 -0.021874674 -0.014629663 0.043302964 0.017216073 -0.018619914
-0.039797533 0.011890398 0.014422417 -0.032736342 0.007660964 -0.030575303 -0.0111223515 -0.018203292
-0.006048189 -0.00024376577 -0.009243974 0.0209902 -0.00849267 0.009721721 -0.019393317 0.009349331
0.004294162 -0.014649224 -0.023555668 0.0021146892 -0.0066540483 -0.03340349 -0.0069869105 0.0017511031
0.00866223 -0.016063588 -0.036071558 0.021965684 0.028367022 0.032715347 -0.0002426688 0.0018116713
-0.023790356 0.023059396 -0.0036256644 0.036681604 0.01587025 0.0034238084 -0.022392198 -0.0068130316
-0.0016426841 -0.0068664867 0.0012174879 0.011261365 -0.015670257 0.00038270734 0.0111553045 0.00890175
-0.011398522 0.021228813 0.024287475 -0.016724763 0.007525268 -0.033406373 0.0057409513 -0.052843668
00000000: 726b d53c fa22 5bbc 6186 c3bc 1063 c03c
00000010: aae6 05bc 26ea 6fbb ac98 713c 0504 993a
00000020: 6b10 5ebc 03dc 2c3c 6a45 06bc 2a63 3aba
00000030: 3c3d 083d 3b6d 023b 4dd9 8abb 3688 e1ba
00000040: c7c6 93bc 1192 683c ddde 50bc b3e3 443d
00000050: 5272 50bc 7e4f 48bc 8ea6 a73b d1ea c13c
00000060: b4e8 683c e66f 99bb f6f0 913c e136 a3bb
00000070: c71f 8fbb 9773 323c 679b 48bb 46c2 153b
00000080: 5854 d3bc c553 3ebd 6d16 39bd 0bb7 61bc
00000090: ebee f03a f28c 1dbc 0995 bdba 135b 5c3c
000000a0: 02d8 b53b 546a debb 8fd9 8aba fa45 d83c
000000b0: 478c 0f3c 9b2e bb3c 9bce 20bc 0a20 d2bb
000000c0: 7b3d 69bc d735 90bb 143c 2bbd 2378 a2bc
000000d0: bd4b 9c3c 60f6 cd3c 5226 0dbb cf67 803c
000000e0: 33c9 983c a07d 06bd e1f6 113c 2225 2ebc
000000f0: d7f0 483c e459 7a39 2c80 113a 586e dd3c
00000100: 1cce 1bbb 9052 d4bb d44e abbc f584 fa3b
00000110: 4e37 213c b579 a9ba ea31 99bb d20f 703c
00000120: 0474 2bbc 56f6 ecbc 2adf e03b 834e b2ba
00000130: 895f bebc 0b47 f0bc 2b91 2f3b fce0 7e3c
00000140: 0904 a13c fe2f 003c cdcc 943c 8c4b a03c
00000150: 0de6 2a3c d0bb 06bd a68d 84bc 1305 bfbc
00000160: 6339 d4ba 3b89 31bd a4d3 0fbc dab0 9a3a
00000170: ed8e 3dbc 7948 6abc 8a62 1abc 81c8 8dbc
00000180: f684 6cbc 87a7 dab8 7600 663c b79e 2bbc
00000190: ad3f ebbc 3510 21bc 59e3 903b 2912 20bb
000001a0: 52b5 dd3b 7bce 1b3c 4892 8dbc 5601 0e3d
000001b0: e3e6 babb 4a86 81bb 4013 8c3c 8ff8 3ebc
000001c0: 022e 943c 8bd0 51bc 5287 ecbc 9c99 f2ba
000001d0: 7d1b 2c3c 0524 dbba b7db 80bc 48bd ad3b
000001e0: 8b14 b4bb 33da d8bc 9911 abbc e7e3 a23a
000001f0: 7620 86bc fa46 4e3c 1b6e 343c 0eb7 96bc
00000200: f774 b0bc e502 d2ba 35fd dbbc 0df3 493c
00000210: d1f9 9f3c 37d2 9a3c 382e adbc 9ec4 f43c
00000220: da1b 383c 5cc7 173d f016 78bb baee fd3c
00000230: 6509 16bd 9b89 c83b fb48 2b3b bee0 77bb
00000240: e6b8 663c 0af4 81bc 90ee e63c 3f80 993c
00000250: 93b2 bdbc 6e12 d23b edee 04bb 5dd2 e03b
00000260: f4cc d4bb c349 bebb be7d 39bb 9a6b e0bb
00000270: 788b 3a3c 599d ab3c 3bc0 f9bc 5fe0 89bc
00000280: 9596 8abd 7658 5bbc bc61 f93c a8e2 793c
00000290: f372 e53c 0563 7ebb 52e8 61bb 7b12 4bbc
000002a0: fc08 813c 939b ce3b 47a1 2ebc b28c 94bc
000002b0: d04f 76bc 0531 c0bb c8c0 1fbb 7590 8e3c
000002c0: b2be 403c 809b 493c 29f8 1dbc 8d39 99bc
000002d0: 96fd 8fbc f811 553c c5de 8ebc 4240 1c3c
000002e0: c72a 07bc 8e52 173d ec98 2abc 71f9 73bc
000002f0: c55c 8d3c b9b7 20bc fcd3 d83a 705f 47bc
00000300: a508 5c3c 7c4b 0dbd 513f aebc 8432 b3bc
00000310: 41b1 6fbc 735e 313d b908 8d3c ca88 98bc
00000320: bd02 23bd f2cf 423c 004c 6c3c 8b16 06bd
00000330: d308 fb3b 0f79 fabc 863a 36bc 121f 95bc
00000340: e32f c6bb 609b 7fb9 0a74 17bc a4f3 ab3c
00000350: d724 0bbc da47 1f3c bcde 9ebc f02d 193c
00000360: 0bb6 8c3b 4c03 70bc d1f7 c0bc 9996 0a3b
00000370: 340a dabb 19d2 08bd 74f2 e4bb 4585 e53a
00000380: 07ec 0d3c c997 83bc c5bf 13bd 61f1 b33c
00000390: f561 e83c 8700 063d e974 7eb9 9a75 ed3a
000003a0: fee3 c2bc 0fe7 bc3c 8e9c 6dbb 733f 163d
000003b0: 5402 823c f961 603b d86f b7bc da3f dfbb
000003c0: 554f d7ba 4400 e1bb 1d94 9f3a 9781 383c
000003d0: e95e 80bc 1ca6 c839 bdc4 363c a5d8 113c
000003e0: dec0 3abc 0ce8 ad3c 87f6 c63c 5f02 89bc
000003f0: 8696 f63b 1fd5 08bd 971e bc3b 9a72 58bd

4.bias f4 [16]
0.5892315 0.21841362 -0.12466688 0.6249561 -0.30730274 -0.21442556 -1.0717988 0.6846689
0.1284065 1.0208126 0.47312298 0.64281946 0.62577945 0.091933794 0.6155567 -3.7161489
00000000: e0d7 163f d2a7 5f3e 5951 ffbd 1ffd 1f3f
00000010: c956 9dbe 6092 5bbe b430 89bf 7646 2f3f
00000020: fe7c 033e fda9 823f 2d3d f23e d18f 243f
00000030: 1533 203f c947 bc3d 2095 1d3f 62d5 6dc0

5.weight f4 [8, 16]
-0.0002631621 0.0056642885 0.0056186984 -0.010154166 -0.0011795082 0.0002441393 0.009327228 0.009323489
-0.004697816 0.008106281 0.004202826 0.012827028 0.0026022368 -0.008176394 -0.0077756434 -0.11325013
0.005004728 -0.020305814 0.019505743 0.030101197 -0.001646275 -0.014852536 0.00038667204 -0.015350826
-0.012739054 0.046711765 -0.019095533 0.014925037 0.02145595 0.01537689 -0.009943607 -0.008917433
-0.022451099 0.005320298 -0.0029958556 -0.025604695 0.007667732 0.023409432 -0.0042431867 -0.01637077
0.028168563 -0.024050405 0.022607995 0.0017186215 -0.015723813 0.0048884666 -0.0030833045 0.0022760157
-0.017354637 0.009276846 0.0084385695 -0.028271098 -0.0003483654 0.018709024 0.012602548 -0.0072687734
0.021938246 -0.029110225 0.022264184 0.004687976 -0.024335448 -0.00854837 0.0008362207 0.009704314
0.011734414 -0.024839537 0.008965259 -0.015083489 0.005173009 -0.019178301 -0.0075121066 0.0075748125
-0.0076939124 0.0020030763 -0.020859078 0.0032749139 0.00883 -0.022428902 -0.0066536213 0.004392836
-0.026890978 0.034002144 -0.0038967617 0.055139314 0.011295901 0.0030403687 -0.016701087 0.019736161
0.01141338 -0.0031739308 0.016351487 0.0065652514 0.005336438 -0.013208961 0.009998496 -0.0046235113
-0.021093154 -0.013485617 0.03238132 -0.0074417526 0.03654749 0.021406375 -0.051756393 -0.025449712
-0.017305806 -0.045396946 -0.020497957 -0.017819285 -0.026437402 -0.006342646 0.0019040176 -0.00953295
0.004338658 -0.01848964 -0.007216257 -0.0147953965 0.002258157 0.019584464 -0.005356605 -0.02166465
0.012597936 -0.06261704 0.0064239996 -0.05211209 -0.033491716 0.007635256 0.022171194 -0.020513874
00000000: 05f9 89b9 7f9b b93b 0f1d b83b a95d 26bc
00000010: ba99 9aba a5ff 7f39 3bd1 183c 8cc1 183c
00000020: 23f0 99bb 35d0 043c dcb7 893b 7428 523c
00000030: 4a8a 2a3b 48f6 05bc d3ca febb afef e7bd
00000040: b4fe a33b 6158 a6bc 82ca 9f3c c996 f63c
00000050: d3c7 d7ba 0d58 73bc 3eba ca39 0882 7bbc
00000060: 77b7 50bc d654 3f3d 3c6e 9cbc 2488 743c
00000070: 63c4 af3c 5aef 7b3c 83ea 22bc 6d1a 12bc
00000080: 5eeb b7bc e555 ae3b 1e56 44bb f0c0 d1bc
00000090: 9941 fb3b 23c5 bf3c 6e0a 8bbb fe1b 86bc
000000a0: c2c1 e63c 5b05 c5bc 6734 b93c 5e43 e13a
000000b0: 3acf 80bc 6e2f a03b 4411 4abb 3529 153b
000000c0: 502b 8ebc eafd 173c ed41 0a3c ca98 e7bc
000000d0: d0a4 b6b9 ab43 993c eb7a 4e3c e42e eebb
000000e0: d6b7 b33c 9178 eebc 6163 b63c 989d 993b
000000f0: 225b c7bc 760e 0cbc d235 5b3a d8fe 1e3c
00000100: b341 403c 497c cbbc 06e3 123c bd20 77bc
00000110: 5882 a93b d01b 9dbc 1e28 f6bb 2236 f83b
00000120: 371d fcbb 0b46 033b a8e0 aabc f09f 563b
00000130: b4ab 103c d1bc b7bc 9f06 dabb c7f1 8f3b
00000140: 784a dcbc d545 0b3d d060 7fbb c3d9 613d
00000150: 7112 393c ec40 473b b8d0 88bc bbad a13c
00000160: 2fff 3a3c b901 50bb 8ef3 853c 5221 d73b
00000170: 49dd ae3b 666a 58bc bbd0 233c d380 97bb
00000180: 8dcb acbc c7f2 5cbc 46a2 043d f2d9 f3bb
00000190: d2b2 153d 6c5c af3c 83fe 53bd ea7b d0bc
000001a0: e8c4 8dbc 26f2 39bd 55eb a7bc c0f9 91bc
000001b0: 4093 d8bc f9d5 cfbb 3b90 f93a 1730 1cbc
000001c0: 4d2b 8e3b 9677 97bc 5a76 ecbb 6468 72bc
000001d0: 96fd 133b 996f a03c 7686 afbb 107a b1bc
000001e0: 9367 4e3c 5d3d 80bd 6a80 d23b 7d73 55bd
000001f0: 9c2e 09bd 2b31 fa3b 5da0 b53c b60c a8bc

5.bias f4 [8]
-2.1825166 -0.0133835375 0.2437228 -0.1813434 0.11265796 -0.061881416 -0.11046755 -0.24159318
00000000: 5aae 0bc0 a046 5bbc 7892 793e 16b2 39be
00000010: 37b9 e63d 5e77 7dbd d03c e2bd 3464 77be

6.weight f4 [1, 8]
0.04969468 0.0008069472 0.0012086896 -0.000900805 -0.0011288587 0.0010483554 0.0023561565 0.0066500753
00000000: a68c 4b3d 4f89 533a e56c 9e3a 0024 6cba
00000010: 36f6 93ba f868 893a bf69 1a3b e0e8 d93b
