project_data/Pytorch-Models/vina-model/vina_model.pt (torch_old, 304510 bytes, 9 tensors)

0.weight f4 [128, 300]
00000000: f595 68bd be49 88ba 5a2d 523d 9425 673d
00000010: b117 42bd f7ea 3cbd a5e2 0c3d f7db 2cbd
00000020: 1ae5 dfbc d59e 2cbd 7d7e 95bc 6b67 62bd
00000030: f2d4 013d 92dc 11bd d452 883d dca4 1e3d
00000040: d1bd 693c 0cda 803c 19eb 25bc 5344 efbc
00000050: b4d8 8cbd f8c0 ed3c 5887 d33c d3dd e5bc
00000060: 6a39 903b 9c61 c0bc 367e c6bb 441f 593d
00000070: d75e d73c 5016 01bc d09b 27bd f43b f8bc
00000080: 0527 9c3a 00f0 9b3c 54cb 09bd 846f 89bb
00000090: 873a 54bc 294c 04bd 47c2 973c 8fa5 e83c
000000a0: 530b 2dbd e228 9dbc e85e 38bd 0611 2a3d
000000b0: e9b9 363c d230 dabc 7a2e fc3c eba6 4d3c
000000c0: a619 363c fb62 2bbd 9f2c 17bd 874b 543d
000000d0: 11aa e43b ffae 423d 5c7c 7ebc 199d 003d
000000e0: 22af 0c3d 6ccb 653c 6b6f 24bd 14e6 353d
000000f0: 1744 f6bc 1d8e 403d 29ad 99bc 44e0 d2ba
00000100: aa60 e5bc 1867 04bc 72dc 16bd 7f5b fdb9
00000110: aa81 b5bc 7698 08bb 61b3 013d b097 88bd
00000120: e176 2ebd c0a8 2cbd 0c2c 0cbd e875 0a3d
00000130: b2b6 eb3b 582e 07bb e223 22bd 49c2 223d
00000140: d4b8 1b3d 340e 9e3c f77d 60bd 826b 2f3d
00000150: 8ae8 ed3c e3c4 26bd fa78 1dbd 7341 17bc
00000160: c742 45bd 85ca 8d3c cc4f 18bd 49fb 32bd
00000170: 2ac3 d9bc 4b5c 443d 166e 063d cb23 70bc
00000180: 5316 2abd 5054 2dbd 68a5 b23c d4a9 a13c
00000190: 8309 4e3c 3072 59bc a230 8cbb dcf0 913c
000001a0: 1a74 59bd bb8b 1a3d b779 373d ce04 aaba
000001b0: 8abe edbc 502a f33c 2b77 5f3d 9961 d23c
000001c0: 367a 95bc 4c9d 393d fe68 82bd 14a8 ba3b
000001d0: 0fa4 9e3c f245 093c 1a37 19bd 5015 303d
000001e0: defb 653d dbcf 923c a254 8bbb 0812 0ebd
000001f0: 0cc6 093c c0dc b9bc 0d1e 803d 1db4 c3bc
00000200: a3b1 34bd 7fbc 8b3d 0ddd 2dbd 791c 15bd
00000210: 877d c03c ebc9 e5bc 7f37 81bd ca69 26bd
00000220: 1232 0f3d 958a e93c 2ec7 183d e078 3c3d
00000230: 4cdb 09bd abcf ab3c 4013 08bd 71af 3d3d
00000240: 67d1 10bd 8ba9 29bc 26e9 6ebd 77fe 043d
00000250: 2086 1ebd d94e 8e3b 9ed7 4fbc c22c 81bd
00000260: ae15 19bc d6db 8bbc fa56 823d 3ea2 8cbd
00000270: 5f25 75bb 485a b0bc 43c8 75bc fc73 d1ba
00000280: fee5 c2bc 41dc 3abc 8fbf 793d baa8 553c
00000290: fab8 29bd 1859 e83c c074 1c3b 9521 e23c
000002a0: da5f a3b9 634d 1bbd fe6d 0c3d 1ab3 6dbc
000002b0: de65 a1bc 8b75 a0bc 2fa4 5b3c a4c0 c33c
000002c0: 6eb2 223d d404 36bd 81dc 25bb 38e2 2ebc
000002d0: 344f f2ba e6ab 8fbc a493 3abb 61d1 2d3c
000002e0: 2732 3fbc 0694 043d f02b 263d a451 223d
000002f0: cfda 94bc 83aa 1dbd 1f81 0bbc 1812 d63c
00000300: 2bc9 7bbb 1ace 803d 0a94 fcbc 050f a13b
00000310: dabd febc b022 13bd 07ba 823c f50c e2ba
00000320: a736 93bb 26d3 18bd 225c a73b ff6f f8bb
00000330: 4bb6 01bd 79a1 1c3d 5587 4abd 5a40 aa3c
00000340: eff4 c6bc 9b5a 3f3d 8c7f 6abb 7b5b 273d
00000350: 9779 53bd f2a8 12bd 3891 383c 2d52 2fbd
00000360: e024 05bb 9d98 7bbd 49f1 463d 3a2a 5abd
00000370: 34ad 79bb 24ae 0e3c 8eea 563d 1423 85bd
00000380: a4aa 1ebd f1f1 9c3c cf6b 0cbd 4e70 083d
00000390: f046 d6bb 5272 d9bc a2b9 243d b629 713b
000003a0: 902c 753c df81 623d 53a1 32bd 874d 9bbc
000003b0: 4bc7 74bd 2a2b 50bd 7520 4f3d 6db9 81bd
000003c0: cd8a 46bd d84f c7bc 36f0 65bd 0fd0 fabb
000003d0: 1afd f6bc ab25 5dbd 877d 33bd d210 25bd
000003e0: 2da3 d73b 56bb 04bd 6043 503d d614 51bd
000003f0: 9ceb 81bd 7801 6b3d afd3 c4bc 538d 433b
-0.056783635 -0.0010397953 0.051312782 0.05643232 -0.047385875 -0.046122517 0.034395833 -0.042201962
-0.027330924 -0.04214366 -0.01824879 -0.05527441 0.03169722 -0.035610743 0.06656423 0.03873144
0.014266447 0.015728973 -0.010126852 -0.029207384 -0.0687727 0.029022679 0.025821373 -0.028059876
0.0044013755 -0.023484044 -0.006057526 0.053008333 0.02629034 -0.007878855 -0.04092008 -0.030302025
0.0011913484 0.01903534 -0.033641174 -0.004194202 -0.012953407 -0.032299194 0.018525256 0.028399257
-0.042247128 -0.019184534 -0.045012385 0.04152014 0.011152723 -0.026634607 0.03078388 0.012552003
0.0111145135 -0.041842442 -0.03690779 0.05182984 0.0069782813 0.04753017 -0.015532579 0.03139982
0.034346707 0.01402555 -0.04014532 0.044408873 -0.030061765 0.04701053 -0.018759327 -0.0016088565
-0.028000195 -0.00808122 -0.036831327 -0.0004832409 -0.022156555 -0.0020842827 0.03166521 -0.06669557
-0.04259384 -0.04215312 -0.034221694 0.03380385 0.00719341 -0.0020626988 -0.039585 0.039736066
0.038018063 0.019293882 -0.05480763 0.042827137 0.029041547 -0.04071511 -0.03844545 -0.009231913
-0.048159387 0.017308483 -0.037185475 -0.043696675 -0.02658232 0.04793958 0.03281983 -0.014656971
-0.041525196 -0.042316735 0.021807387 0.0197343 0.01257551 -0.013271853 -0.0042782584 0.017815046
-0.05308924 0.037730914 0.04479381 -0.0012971403 -0.02902152 0.029683262 0.054557007 0.025681304
-0.018246751 0.045316026 -0.06367682 0.005696306 0.019365339 0.008378493 -0.037406065 0.042989075
0.056148402 0.017921379 -0.0042520324 -0.034685165 0.008409034 -0.02268827 0.06255732 -0.023889596
-0.04411472 0.06823062 -0.04244714 -0.036404107 0.023497356 -0.028050384 -0.06309413 -0.040628232
0.03495986 0.028508464 0.037299328 0.046013713 -0.033656403 0.020973047 -0.033221483 0.046309892
-0.03535595 -0.010355364 -0.058327816 0.03246924 -0.03870213 0.0043428955 -0.0126856845 -0.06307365
-0.009343548 -0.0170726 0.06364246 -0.06866883 -0.0037406308 -0.021527424 -0.015001359 -0.0015980001
-0.02379131 -0.011405052 0.0609737 0.013040716 -0.041436173 0.028362796 0.00238733 0.027603904
-0.00031161198 -0.0379156 0.034284584 -0.014508033 -0.019701894 -0.019587299 0.013405844 0.02389557
0.039720945 -0.0444382 -0.0025308433 -0.010674052 -0.0018486739 -0.017538022 -0.0028469348 0.010609002
-0.011669672 0.03236773 0.040569246 0.03962864 -0.018170742 -0.03849269 -0.008514672 0.026131675
-0.0038419466 0.06289311 -0.03083231 0.0049151205 -0.031096388 -0.035921752 0.015957845 -0.0017246293
-0.004492599 -0.03731074 0.0051074186 -0.0075817103 -0.03166799 0.03823993 -0.04944547 0.020782638
-0.024286715 0.046717267 -0.003578159 0.040858727 -0.05162963 -0.03580565 0.011265092 -0.04280298
-0.0020316169 -0.06142484 0.04856995 -0.053262927 -0.0038097622 0.008708511 0.052469783 -0.06500831
-0.038736954 0.019158335 -0.0342825 0.033310227 -0.006539218 -0.02654377 0.040216096 0.0036798543
0.014964238 0.055299636 -0.043610882 -0.018957866 -0.059760373 -0.050822414 0.050568063 -0.06334195
-0.048472214 -0.024330065 -0.056137286 -0.007654197 -0.030149985 -0.053991 -0.043820884 -0.040299244
0.0065807314 -0.03240522 0.050845504 -0.05104526 -0.06343767 0.057374448 -0.02402672 0.0029838874

0.bias f4 [128]
00000000: d38f d5bc 227a efbd fe63 2d3c 37c5 55bd
00000010: 7d0e 4bbd 28c9 debc 5510 603c 7743 19bf
00000020: 53d9 f93c 461d 8cbc ad12 2b3d 74a1 dfbc
00000030: f5e6 273b f0cb 02bd ea7c 2bbd 2736 10bd
00000040: 0a56 c8bc 602d cebd 382a 483c 2668 4c3c
00000050: 72ca 7abd 6041 063d c2c8 46bd 40ee 54bd
00000060: 8c17 e03b 1f9e f9bc dc82 82bb cc8b 83bd
00000070: 2d42 273f 81a4 3cbb bd77 613d a851 853b
00000080: 0bac 7abd b3a2 8bbc 5b2f 7dbd 8a24 7abd
00000090: a197 133e 2f2c be3b c480 20bc b48b 463c
000000a0: 75b8 b1bc 084f ee3d a456 83bd 0a6f 36bd
000000b0: 8075 143d 792b 443d 76f0 acbd 2200 33bd
000000c0: 3015 2abc 9fa2 95bd 9cee 1dba 7a38 53bb
000000d0: 4a4b 70bd 1732 86bb 1052 26bd 38f3 a6bc
000000e0: d96b a43c e4ba e63c 3fea 423d 00b0 d23a
000000f0: ddc1 3a40 60f8 0cbc 2a5c 5fbc 6819 dc3c
00000100: 742a cfbc 4ca6 3d3c 7b15 25c0 725a c53b
00000110: d7d4 ce3b aa67 cc3b bbec e13c 4ffc 16bd
00000120: d61d 36c0 7fd4 78bd 8a33 44bf 69d8 16bf
00000130: 0305 77bd 3066 8ebd d4ad 22bd 3817 32c1
00000140: 4fb9 673c b900 1ebb 6b3b 4ebd 40d3 fabd
00000150: 477c 17bd a283 093c d07b 59bc 3981 0ebd
00000160: ae7a 123d a35c 3cbd b84f 343d 18ae 48bd
00000170: 21a8 79bd cf05 49bd b49e 9d3b 3afb 18bd
00000180: c77b 59bd 4c38 f8bd 0b83 e6bc 8b00 71bf
00000190: 1bdd d43a cb5d 4cbd 5100 c73b 1a4f febd
000001a0: e309 92bd 4e01 6c3a 8c77 f13c 10ba 96bd
000001b0: d865 373d 8966 b4bb 158e 4c3d a266 46bd
000001c0: 0de4 1ebd b164 9a3a 2266 75bd ef6b 453c
000001d0: 0f3c 57bd d371 6bbc 01d9 33bb 28eb 363d
000001e0: 0780 13bd 336e d83d 4103 7f3c 39ac 8dbd
000001f0: e3b4 f23b cd3f b6bc b4cf d73c 9d80 81bd
-0.026069557 -0.11693217 0.010582922 -0.05219003 -0.049574364 -0.027195528 0.013675769 -0.5986857
0.030499136 -0.017103802 0.041765857 -0.027298667 0.002561984 -0.03193277 -0.041867174 -0.035207894
-0.02445509 -0.10067248 0.012217097 0.012476003 -0.061228223 0.03277719 -0.0485313 -0.051985025
0.0068387445 -0.030470906 -0.003982885 -0.064231485 0.6533535 -0.0028784575 0.055045832 0.004068572
-0.06119923 -0.017045354 -0.06181274 -0.061070003 0.1441331 0.005803607 -0.009796325 0.012118269
-0.021694401 0.11636168 -0.0641301 -0.04453949 0.03624487 0.04789302 -0.08444302 -0.0437013
-0.010381028 -0.07306408 -0.000602463 -0.0032229708 -0.05866555 -0.0040953266 -0.040605605 -0.020379648
0.020070957 0.028165288 0.047586676 0.0016074181 2.9180825 -0.008604139 -0.0136328135 0.026867583
-0.025288798 0.011575293 -2.579436 0.006022745 0.0063119936 0.0062379437 0.027578702 -0.036861714
-2.845571 -0.060749527 -0.7664114 -0.58923966 -0.060307514 -0.069530845 -0.039716557 -11.130669
0.014143302 -0.0024109317 -0.050349634 -0.12247324 -0.036983754 0.0083932 -0.013274148 -0.034791205
0.035761528 -0.045986783 0.04402134 -0.048994154 -0.060951356 -0.049077805 0.0048101787 -0.037348963
-0.05309656 -0.12120113 -0.028138658 -0.94141454 0.0016240211 -0.049894135 0.0060730358 -0.12417431
-0.07130792 0.000900288 0.02947595 -0.07359707 0.04477486 -0.005505387 0.049940187 -0.048437722
-0.038791705 0.0011779276 -0.059911855 0.012049659 -0.05254751 -0.0143703995 -0.0027442577 0.044657856
-0.03601077 0.10567894 0.015564741 -0.069176145 0.0074068173 -0.02224722 0.026344158 -0.06323359

2.weight f4 [128, 128]
00000000: 78c0 cbba 466e 153d 2aaa 1abd 21b4 a63d
00000010: 935d 8ebd ed07 173d b51c cfbc 260f 88bd
00000020: 9e85 b9bd 90f7 6ebb 9d8a fdbc bcdb 173d
00000030: 8679 3ebd 3311 a83d 5567 16bd fd8f 6fbc
00000040: b38d 8cbb 0cf4 f5b9 caf2 edbc 8de8 0fbd
00000050: fa01 d73d 7a2c 86bd bd20 ad3d b611 4bbc
00000060: 6cac cb3d fd8b 29bd 1749 843d 26be 143d
00000070: 9fac 063e ebb6 c23c ecdd 70bd 6bcf 073c
00000080: 8eba b93c 0cfa 37bd 1781 07be 4f52 9bbd
00000090: 3f49 d7bc 3d62 613d 36c8 363d 7f16 c3bd
000000a0: e679 71bd 71bd 6ebc 1e93 e63b c945 96bd
000000b0: ad18 403d d85d 22bd 0a16 49bd 4878 343d
000000c0: 34d6 b8bb 3e3d 973c e362 1dbd 1333 7cbd
000000d0: b259 9f3d 79f8 543d f6c8 553d c48d 96bd
000000e0: e874 173b 2ba1 acbd e7b4 4abd 7cd9 02bd
000000f0: b638 de3d b3e7 42bd b70f 0b3d 8021 273d
00000100: 3d80 92bb 1658 7a3d 97d5 80c0 8dc3 7abd
00000110: 87e5 11bc 9441 e23c 56eb 663d da7c 5ebd
00000120: 8d56 b2be 3924 963c c971 acbd 63dc efbe
00000130: 2113 713d 0ea8 19bd 2815 84bc 3165 313d
00000140: 0213 623d 5e00 dd3b 3f79 c43c 1a12 b43d
00000150: 5c09 b8bc cd22 c33c 0761 40bb 0b08 d93c
00000160: 2574 8a3d ac4c 80bd 765b 49bd b68c b6bd
00000170: f2bc cbbd 236e 63bc ba98 95bb 743d feba
00000180: dd48 9b3c 58f3 9f3b 1753 85bd b2a7 243e
00000190: ca78 bb3c c4a1 8e3d b82d 1cbc 8279 373d
000001a0: 16b2 8b3d df9a 743d b8bd 56bd 657d 933d
000001b0: 7355 00bc 7685 b7bb c502 abbd 611d 9abb
000001c0: 5597 13be e5e0 32bd 1e2e 433c 264d a2bd
000001d0: a425 cabd 9f72 593d 6aab 92bd faa8 503d
000001e0: 81de 5f3d da58 88bb 2511 14bd 73a0 5ebb
000001f0: 80a6 7bbc 7320 8bbd 1a7e 09bd 3c44 f3bc
00000200: 2bd9 96bd b9ef 81bc db39 9f3c 4f39 7b3c
00000210: 4570 a5bc 2f66 c43c 18a5 003d d9b8 16bc
00000220: 7190 a93d 8db5 aebd 3ec5 11bd 92c7 333d
00000230: aa58 453d d8bd 86bd dadb 6fbd 8490 e8bc
00000240: 62a5 b2bd a168 94bc 4b60 893d 750e b43d
00000250: 81f7 10bc 08e4 8ebc 0430 a5bd 3e23 5abd
00000260: 0470 ee3c 6c7d b0bd 62d4 0d3d a0c4 dd3c
00000270: 5e06 28be 5931 9cbd ee65 703d 2118 48bd
00000280: 239a 18bd 7c2a 373d 33d6 0c3d 9460 fabb
00000290: 629b 66bd a58a a7bd 87e0 8fbd f432 b83d
000002a0: 3d2f d33d 9ab0 77bd ab24 923d da8b 60bd
000002b0: 825f 323d d26d 8c3c a6bb f1bd 57ed a6bc
000002c0: 1d93 513d 49ec b63c 7009 babb 7d55 533d
000002d0: bf3a a63d 8e04 9cbc 9e0f 56bd aca8 fabc
000002e0: 8a66 b2bd ce95 5bbc dcba 37bd 7824 e1bc
000002f0: efe8 9bbd 0243 acbd c35f 933d 3fc3 27bd
00000300: 8cd9 eabb 4ffb b33c c0da e4bd 58b5 06bd
00000310: c24e fe3c 1b49 16bd ff17 9abc f4f1 2fbd
00000320: 0b94 e2bd 2d35 31bd 6196 01be 6050 93bd
00000330: 96c2 2d3d 29e3 8f3d 371b 61bc 7bca 10bd
00000340: 28b1 ffbc 0fb7 603d c51a 13be 427a 673d
00000350: cb63 7ebd cb60 943d 4853 8a3d 84f7 9b3d
00000360: bec1 c13c 091d 37bd fc46 b4bc 1322 f8bc
00000370: 59de 0e3c ba77 003c f8ca f93c b3b4 1c3d
00000380: bb3b a03d 080a f1bc 2783 073d 2243 73bd
00000390: 249f 913c 72ad 1fbc 41d3 913d fc9b 963d
000003a0: 6f21 7a3d 994f eebc 6a31 8e3d 82db 3e3d
000003b0: 5469 db3c 12b6 c2bc 66f5 eb3c 9d23 463d
000003c0: 3692 293d 727c 873d caf3 583d 55c0 54bd
000003d0: 17ec 3e3d 510d 9c3d 400b 49bb f461 8c3d
000003e0: 3968 eabc 138f 0cbd aaa9 d03c f32f 3cbd
000003f0: 243d 043d 73ae 4cbd 5963 913d b7ae 1a3d
-0.0015545031 0.036482118 -0.037759937 0.081398256 -0.069514416 0.036872793 -0.025282243 -0.06643514
-0.090586886 -0.0036463477 -0.030949885 0.03707479 -0.046502613 0.082064055 -0.03671964 -0.014621732
-0.004289353 -0.0004691187 -0.029046435 -0.035133887 0.10498424 -0.06551452 0.0845351 -0.012394359
0.09944996 -0.04139327 0.06459253 0.036314152 0.13151787 0.023768863 -0.05880539 0.008289198
0.022671964 -0.044916198 -0.13232838 -0.075840585 -0.026280044 0.055025328 0.04462453 -0.09525775
-0.058954142 -0.014571534 0.0070365807 -0.07337529 0.046898533 -0.039640278 -0.049093284 0.04406002
-0.0056407694 0.01846182 -0.038424384 -0.061572146 0.0778078 0.051994774 0.052193604 -0.073512584
0.0023110453 -0.08429178 -0.04948893 -0.03194569 0.108506605 -0.047584247 0.033950534 0.040803432
-0.0044708536 0.06111916 -4.026073 -0.061221648 -0.008904821 0.02761916 0.056376778 -0.054318286
-0.34831658 0.01832782 -0.0842014 -0.4684783 0.058856133 -0.037513785 -0.01612337 0.043309394
0.05519391 0.0067444285 0.023983596 0.08792515 -0.0224654 0.023820305 -0.0029354708 0.026493093
0.06760434 -0.06264624 -0.04915949 -0.08913557 -0.09948148 -0.013881239 -0.0045653256 -0.0019396977
0.018955642 0.0048813038 -0.06509989 0.16079596 0.022884745 0.06964448 -0.009532385 0.044793613
0.068210766 0.05971801 -0.052427024 0.072016515 -0.007832873 -0.0056006266 -0.083501376 -0.0047032093
-0.14413197 -0.043671507 0.011912851 -0.07924871 -0.09870461 0.053087827 -0.07161601 0.0509424
0.054655556 -0.0041609826 -0.036149163 -0.0033970147 -0.015359521 -0.067932986 -0.033567525 -0.029695623
-0.0736564 -0.015861379 0.019436767 0.015333488 -0.020195136 0.023974506 0.031407446 -0.009199345
0.08279503 -0.08530722 -0.035588495 0.043891497 0.04818026 -0.065791786 -0.058559276 -0.028389223
-0.087229505 -0.018116297 0.067078196 0.0879182 -0.008848072 -0.017442718 -0.08065799 -0.053256266
0.029106148 -0.08617672 0.034626372 0.027071297 -0.16408679 -0.076266 0.058690958 -0.048851136
-0.03725637 0.04471825 0.034383964 -0.0076409075 -0.05630053 -0.08180741 -0.07025247 0.089940935
0.10311744 -0.060471155 0.071359 -0.054820873 0.043548115 0.01714221 -0.11803369 -0.020376844
0.05116569 0.022329466 -0.0056773946 0.0515952 0.08116674 -0.01904514 -0.052260987 -0.030598007
-0.08710964 -0.013402415 -0.044855937 -0.02748321 -0.07612788 -0.08411218 0.071959995 -0.040957686
-0.007167047 0.02197042 -0.11174536 -0.032887787 0.031043414 -0.036690813 -0.01881027 -0.042955354
-0.11063393 -0.043263603 -0.12655021 -0.07193065 0.0424219 0.07025749 -0.013739399 -0.03534935
-0.031212404 0.05486208 -0.1436568 0.05651308 -0.06210689 0.07245024 0.06754166 0.07615569
0.023651954 -0.044705424 -0.022006504 -0.030289685 0.008720004 0.007841045 0.03049229 0.038258266
0.07823893 -0.029423729 0.03308406 -0.059390195 0.01777608 -0.009745942 0.071203716 0.073539704
0.06106704 -0.02909069 0.06943019 0.046596058 0.026783623 -0.023768459 0.028803539 0.048373807
0.041399203 0.06615533 0.05296687 -0.051941235 0.04661187 0.076197274 -0.0030676872 0.068546206
-0.02861415 -0.034316134 0.025471527 -0.045944165 0.03228487 -0.049971055 0.07099027 0.037764277

2.bias f4 [128]
00000000: a29a 61c0 0376 25be 17b7 2dbe 84d0 1dbe
00000010: 765b 8fbd 5801 52bf 6e21 d5bd 876f bbbc
00000020: 8153 53be 16b7 59be 557d e4bd 5ee0 2abd
00000030: d5fd 11be 4362 8cbe d110 80be 4951 88be
00000040: b66d 43be 0459 6cbc ec80 b0bc c3f1 e1c0
00000050: 6c92 5140 b9dd 9bbd f621 28be 788c 4bbd
00000060: e65a 11be d136 ddbd f4db 92be 8fac 0ebd
00000070: c6e8 1abe d5a1 04be 7840 f0bd 55d4 d0bc
00000080: 8e76 85be 827c bebd ff14 0dbe 43fa f3bd
00000090: 02b5 04be c28d 233e b141 b1bc 8739 693f
000000a0: 76e8 44be c7d7 0ebe cbbd 49bf 7bd0 90bd
000000b0: 3919 25bf 73a8 b3bd 0c3f 57be ed17 33be
000000c0: 399a a3be b6ca 4bbe 333f 02be e1ae 61be
000000d0: 2446 49bd 60d7 38be 6580 26be 4232 d0bd
000000e0: b647 d2bd 902c 1bbd 815b 5cc0 bf4e f9bd
000000f0: 5e96 573f 09e9 a0be 3db0 80be 0a22 48bd
00000100: a814 7ebd e1d4 f3bd 9796 34be 26ba 4ebe
00000110: 85fd 34bc d160 efbd 3403 55be 4287 47bd
00000120: d5fb b5be 95d8 bfbd b56c 2bbe 212f 09bf
00000130: 4752 b4bd 2221 8cbd 3e7c a2be c09d 2bbe
00000140: 341d 55be 47b1 d6be 6e54 03bf 7a4e 69be
00000150: 503f 11be 5d57 06be 17c5 a0be 03f1 08be
00000160: 2300 56be 90db 02be a050 4abe 5e17 fbbd
00000170: 33a0 7bbe 2ad1 0cbe 7731 02bf 3636 4abf
00000180: e7ba 603f c886 92be 3fcb 6fbc 19ee 42be
00000190: c26f debd cbbb 31be 0ac7 2bbe 0453 02be
000001a0: 2280 0fbe c136 8abe a06a 38be 2ecb c5bd
000001b0: 1964 cfbd 9a97 eb3e f179 cbbe e5d0 acbf
000001c0: 36e0 16bd 5bbf bcbe f083 083f c7c8 b3be
000001d0: a8fb 1dbd f13e 92be 0891 7dbe 3bf2 55be
000001e0: 2cf2 23be 4a03 51be 0c4c 04bd f73d c3bc
000001f0: 0a9e 5fbf 55bf c4be 5f26 11be 659e a9bd
-3.525063 -0.16158299 -0.16964374 -0.15411574 -0.06999867 -0.820333 -0.10406767 -0.022880329
-0.20637323 -0.21261248 -0.11156718 -0.04171788 -0.14256985 -0.27418718 -0.2501283 -0.26624516
-0.1908482 -0.01442552 -0.02154585 -7.060762 3.274562 -0.076106496 -0.16419205 -0.04969451
-0.14194831 -0.10801471 -0.28683436 -0.034832533 -0.15127859 -0.12952359 -0.117310464 -0.025491873
-0.26067013 -0.09301092 -0.1377754 -0.11912968 -0.12959674 0.15972045 -0.02163777 0.91103405
-0.19229302 -0.139495 -0.78805226 -0.070710145 -0.6449161 -0.087723635 -0.21020144 -0.17489596
-0.319536 -0.19901547 -0.12719421 -0.22039367 -0.049139157 -0.18050909 -0.16259916 -0.10165836
-0.10267584 -0.037884295 -3.443085 -0.12173223 0.8421382 -0.31427792 -0.2513446 -0.048860587
-0.062031418 -0.11905838 -0.1763557 -0.20188197 -0.011046772 -0.11688388 -0.20802003 -0.048712976
-0.35543695 -0.093674816 -0.16740687 -0.5358754 -0.08804756 -0.06842257 -0.31735414 -0.16759396
-0.20811921 -0.41932127 -0.51300704 -0.22783843 -0.14184308 -0.13119264 -0.31400368 -0.13373189
-0.2089849 -0.12779069 -0.19757318 -0.12260316 -0.2457283 -0.13751665 -0.5085673 -0.7898897
0.8778519 -0.28618455 -0.01463586 -0.1903614 -0.1086116 -0.17356794 -0.16775146 -0.1272698
-0.14013723 -0.269949 -0.18009424 -0.09657894 -0.10126514 0.460141 -0.3974147 -1.350125
-0.036834918 -0.36864743 0.5332632 -0.35114118 -0.038570076 -0.28563645 -0.24762356 -0.20893185
-0.1601035 -0.20411411 -0.032299086 -0.023833258 -0.87350523 -0.38427225 -0.14174794 -0.082821645

4.weight f4 [128, 128]
00000000: c9f2 6cbc 9416 323c e61f 143d 71c8 93bd
00000010: c898 c9bc eb5b b9bd 66d1 5fbd 361a 03be
00000020: 248d 2a3d 32dd 863d 1d1a 27bc ef38 863d
00000030: b9db 98bd aabc b2bb 7e94 b13d 5f5a 36bd
00000040: b9c6 40bd f436 8b3d 31cb f8bd e5ee 9ebd
00000050: 16a7 a8bd 1f8e 25bc 94e7 b9bd 9cc4 9abd
00000060: 3b59 7dbd b9bd 9ebd 20d7 55bc d122 11bd
00000070: 6736 2fbd a283 bd3c 4874 8f3d ed3a 0e3d
00000080: ce59 9bbd 547b 24bd d1bc debb 244c 93bc
00000090: f87b 21bd efb0 8cbd c681 14bd 1456 59bb
000000a0: 3f9d 0f3d 3080 8dbd 0c26 a43d 7089 f8bc
000000b0: 137f e7bc f9f3 ccbd 872c 093d 67c6 9fbd
000000c0: 2c55 08bd b60f 9d3d 531d a83c 3a50 53bd
000000d0: 8163 e0bc a66b 45bc 0fc1 1abc 69fc 593d
000000e0: bd79 26bd f04e cb3c e891 d2bd 6da8 b5bc
000000f0: 1528 14be 9bb2 1ebd 9cbf 9fbd 02f8 84bd
00000100: 4084 e03c 6068 c4bc 2d06 393d 55b1 aabd
00000110: 5e34 fd3b dd56 c1bd 2121 663d 3876 00bd
00000120: 209c 68bd 7d39 f93c 4411 78bb 3f85 bbbc
00000130: d7d8 283d cc44 b2bd 1192 dc3c 75cf a83d
00000140: 84f5 3bbd a7a2 2c3d c178 813d ff0f b7bd
00000150: 2a77 613d b375 ccbd cd87 ab3c f781 18bd
00000160: 0386 e7bd a259 2fbd 59d9 d4bc 5538 d93c
00000170: e55d 7d3d 3798 b3bd ef4d 9d3d 8ad0 d1bd
00000180: 7066 18bd a16d 86bd 0c49 37bd 7b83 023d
00000190: 955a 88bd f2a7 d63c 62cd a4bd 13ce f2bd
000001a0: d144 73bd aa23 96bd 8b39 3f3d f919 debc
000001b0: a244 ed3c fb0f 4ebd 120a 513d cdb2 3b3c
000001c0: 8608 033d ed5f 81bb 1e02 05be 636c 9dbd
000001d0: 1989 46bd 34f6 da3d 3252 2abd b635 19bd
000001e0: df9b 9a38 ed3a 123d af84 c8bc 688e ccbd
000001f0: 3ced 9dbd ce7f a03d f9b7 4e3d b181 cc3c
00000200: 4b91 e6bd 20b1 babd e3ad 22bd e80b f6ba
00000210: fade 4d3d 5a13 5dba cf60 a43a 204a 87bd
00000220: a061 df3c daca adbd dc30 c2bd c42a be3c
00000230: fa48 1ebd 1dfb 3d39 c1ba 78bc 7348 0bbd
00000240: eeec b73c 55b2 6cbd d246 a1bc d776 76bd
00000250: d4a7 61bb 4b5a 9fbc 92b8 35bd b1ab b3bd
00000260: d566 1d3d b217 48bd 27b9 88bd 6729 48bd
00000270: d809 98bd 017e f9bc 12dd b0bc 248b 51bd
00000280: ba67 6abc 3e6e f13c 249e a2bd 67e1 3dbd
00000290: d081 64bd b5be 93b9 4168 1dbd 154a 70bb
000002a0: f11d 4ebc 232c 033b 5b63 7cbd 70b8 2a3b
000002b0: c970 a5bd cbdd 7cbd edc7 363d b7d1 903c
000002c0: c4ac 7fbc a414 20bd 5aa0 d2bc bee6 38bc
000002d0: ee50 a5bd ba65 c9bd a57e 7ebd a7cf ba3c
000002e0: d26e 813d 7773 a53d 0424 e2bc 5a0e 02bd
000002f0: e3f0 41bd 83c2 febc cc14 1fba 3824 9cbd
00000300: 5185 553d f26e 7fbd e675 97bd 5712 9d3d
00000310: 8eab a4bd 64d6 92bc 85ef 4dbd 63f4 a6bd
00000320: 80c3 87bd 352e d7bb adb5 33bc fd4c 77bd
00000330: 1821 84bc 1664 7bbd 4bd9 433d a022 b0bd
00000340: 786b 08ba 002d d4bd 7f17 11bd 4b17 bf3d
00000350: aca2 35bc cb70 b93c bc15 5dbd 7cd1 9dbd
00000360: b2e1 05be e66b 5dbd 16cc 3ebd c742 73bd
00000370: e089 ae3d 7feb 413d 7b24 f8bd 8f05 43bd
00000380: bdf6 96bd d0a2 7cbd 48bc bd3d 2611 05bc
00000390: d2bf 943d cdae 533d c757 04bd 8db7 c0bd
000003a0: 9096 573d 7766 abbb 7da1 46bc fd9e 6ebd
000003b0: f361 8d3d 9990 f7bc 0515 413d a8f6 e3bd
000003c0: 037d 743b f4c5 0b3c 5431 0dbe 1204 17bc
000003d0: 10ab 2dba 891e 01be 804d 3abd f669 abbd
000003e0: 35ab e6bd 9d0f 8ebb d9a2 d8bd 300b 88bd
000003f0: f972 0bbe 4865 a7bd 90da a0bd 6e7f 3cbd
-0.014462181 0.010869641 0.036163233 -0.072159655 -0.024608985 -0.09050735 -0.054643057 -0.12802967
0.04163851 0.065851584 -0.010199097 0.06553828 -0.07463784 -0.0054546194 0.08670901 -0.04451978
-0.047064517 0.06797591 -0.12148131 -0.07760409 -0.08234994 -0.010104685 -0.09077373 -0.075570315
-0.061852675 -0.077510305 -0.013051778 -0.035433594 -0.04277649 0.023134056 0.07004601 0.034724165
-0.07585488 -0.040156677 -0.006797411 -0.017980643 -0.039424866 -0.06869685 -0.036256574 -0.0033162879
0.03506207 -0.069092155 0.08015069 -0.030338973 -0.028258836 -0.100074716 0.03348973 -0.07801514
-0.03328435 0.07669012 0.020521795 -0.051590182 -0.027391197 -0.012049591 -0.009445443 0.053219233
-0.040643442 0.024817914 -0.10281736 -0.022175038 -0.14468415 -0.03874455 -0.078002185 -0.06492616
0.027406812 -0.023975551 0.045171905 -0.08334605 0.00772719 -0.09440396 0.056183938 -0.031362742
-0.056789517 0.03042292 -0.0037852088 -0.022890685 0.04122242 -0.08704528 0.026925119 0.08242694
-0.04588844 0.042147305 0.0632186 -0.08938598 0.055045284 -0.09983387 0.020938778 -0.03723332
-0.113048576 -0.04281009 -0.025982546 0.026516119 0.061857123 -0.08769267 0.0768088 -0.10244854
-0.037207067 -0.06563879 -0.044747397 0.03186367 -0.06657902 0.02620313 -0.08046986 -0.11855712
-0.0593918 -0.07331021 0.046685737 -0.027111994 0.02896339 -0.05030821 0.051034994 0.011456204
0.03199055 -0.003948203 -0.12989089 -0.07686689 -0.04847059 0.10691491 -0.041582294 -0.03740474
7.3723255e-05 0.035700727 -0.024477331 -0.09988099 -0.077112645 0.07836877 0.05046842 0.024964185
-0.11258181 -0.09115815 -0.039716613 -0.0018771859 0.050261475 -0.00084333646 0.0012541058 -0.06605935
0.02726823 -0.084859565 -0.094819754 0.023213752 -0.038643815 0.00018117992 -0.015181244 -0.03400464
0.022451844 -0.05778726 -0.01968709 -0.06017193 -0.0034432309 -0.019452235 -0.044365473 -0.08772982
0.038428146 -0.048850723 -0.0667594 -0.04886761 -0.074237525 -0.030455591 -0.02158979 -0.051158085
-0.014306957 0.029471513 -0.07940319 -0.04635754 -0.05578786 -0.00028180113 -0.038429502 -0.003666525
-0.012580381 0.0020015321 -0.06161819 0.0026049875 -0.08078153 -0.061734956 0.044624258 0.017678125
-0.015605155 -0.039082184 -0.025711227 -0.011285482 -0.08072077 -0.09833856 -0.062132496 0.022804094
0.063199654 0.08078664 -0.027605064 -0.031751968 -0.047348868 -0.03109861 -0.00060684676 -0.07624096
0.052129094 -0.062361665 -0.07395534 0.07669514 -0.08040534 -0.017924495 -0.05027725 -0.08152082
-0.066290855 -0.0065667876 -0.010968608 -0.060376156 -0.016129062 -0.061374746 0.04781465 -0.08600354
-0.00052040024 -0.103601456 -0.0354228 0.09330615 -0.011086147 0.022636792 -0.053975806 -0.077059716
-0.13074377 -0.054057978 -0.04658135 -0.059389856 0.08522391 0.047343727 -0.12116333 -0.047612723
-0.0737128 -0.061678708 0.092644274 -0.008121764 0.07263149 0.051680375 -0.032310273 -0.094100095
0.052633822 -0.0052307206 -0.012123463 -0.05825709 0.06903448 -0.030220317 0.047139186 -0.1113103
0.0037305958 0.008531082 -0.13788348 -0.009217279 -0.00066249166 -0.12609304 -0.045484066 -0.0836982
-0.11263124 -0.0043353573 -0.10577936 -0.06642759 -0.13618077 -0.08173615 -0.078541875 -0.046019964

4.bias f4 [128]
00000000: ac3b 30be 3256 fbbd 449e 9dc0 6c1f 46bf
00000010: dc94 afbf 352b b2be 379c 50bd 7876 cf3f
00000020: 9616 16bf ce2c 6ebe 0bea 17be 15b1 13be
00000030: c1b1 36be d27a 37be 2422 0bbf 0463 8abc
00000040: ea90 84be cbcf 82be 806b 0fbe ff05 8bbf
00000050: 7e6c d6bd 20c8 643e 6205 7c40 8825 8ebf
00000060: 4be4 0ebe db96 6240 b84f 49be de1c eabe
00000070: da52 2abe ee78 6abd c141 35be 960d 81be
00000080: 6493 0bbe 0de7 b4be 4999 7dbf d0d0 0dbe
00000090: 673f 9f3e 879d 36be 0d46 9dbd 82e8 5340
000000a0: 610d e3bd 630a 86bd 83b0 2ebd 9534 ffbd
000000b0: 7b56 07be ac5a efbe e932 12be a62e 3940
000000c0: 38d7 45bf 9439 38bf 3666 4440 4caf 10bd
000000d0: 8f5a d9bd 2d40 e9be a8e3 3dbe 5461 fbbd
000000e0: 9211 a2be 914c 67bc b366 cebe 8df7 3340
000000f0: 1a09 68bf 8150 a5be 5bef bdbe 2aa1 8fbe
00000100: 1707 96bd 8c75 2c3f 4c1c b7bd 56cd 8bbc
00000110: 143b fbbd 7b34 d93f 4df6 3bbf 3540 28c0
00000120: 0948 cf3d d4eb e5bd 608f 92bd 9f5e 87bf
00000130: 4fab 2ebe 677d 99be 90d1 64be 2c43 9cbe
00000140: 521c 1d40 d487 1ebe ae0f 00be 7edb a1bf
00000150: 0b81 a6be 643a 88bd 15d7 0dc0 4126 30be
00000160: ceae 5fbe ed7d 33bd 7fcb 3dbd 7c8d e2be
00000170: 8fd8 e7bd 0924 72be 7ae8 32be 34fa acbd
00000180: 6720 82bf f0a7 34bf 1701 12be 8c77 27be
00000190: 58e3 18be 0778 8abe 8ec0 8fbe 0c99 4840
000001a0: f4ca 51be c359 2dbe 8ba0 f2bd be84 00be
000001b0: 6d70 05be 116f a6bd b826 e7be 93a4 e83e
000001c0: b8f4 07be aad2 5abe 9fdc 6240 9d13 a63f
000001d0: 379c 05be 4871 09be 8099 5ec0 0669 c7bd
000001e0: b63c 42c0 8c3f 4ebf a9f7 65be 4d7f 91be
000001f0: bf81 77be f79b 0a3f c2e5 8fbe 3c83 1bbe
-0.17210263 -0.122723 -4.9255695 -0.77391696 -1.3717303 -0.3479859 -0.050930228 1.6208029
-0.58628213 -0.23259279 -0.14835374 -0.1442302 -0.17841245 -0.17917946 -0.5434897 -0.016892917
-0.2589181 -0.25549158 -0.14005852 -1.0861205 -0.10469912 0.22341967 3.9378285 -1.1105204
-0.13954274 3.5404575 -0.19659317 -0.4572515 -0.16633168 -0.057244234 -0.17700864 -0.25205678
-0.13630444 -0.35332528 -0.9906202 -0.13849187 0.3110306 -0.1783353 -0.07679377 3.3110662
-0.11086536 -0.0654495 -0.042648803 -0.12461201 -0.13216583 -0.46748865 -0.14277233 2.8934722
-0.7728152 -0.7196286 3.0687385 -0.035323426 -0.10612976 -0.45556775 -0.18543875 -0.12274423
-0.3165403 -0.014117376 -0.40312728 2.8119843 -0.9063889 -0.32287982 -0.37096676 -0.28052646
-0.07325571 0.6736686 -0.08940944 -0.017065685 -0.12267128 1.6969141 -0.734227 -2.628919
0.101211615 -0.11226621 -0.07156253 -1.0575751 -0.17057537 -0.29978487 -0.22345567 -0.30519998
2.4548535 -0.15481502 -0.12505981 -1.2645109 -0.32520327 -0.06651762 -2.2162526 -0.17202093
-0.21844026 -0.043821264 -0.046336647 -0.4424857 -0.11320602 -0.23646559 -0.17471495 -0.0844616
-1.0166138 -0.7056875 -0.14258228 -0.16354197 -0.14930475 -0.270447 -0.28076595 3.1343412
-0.20487577 -0.16928773 -0.118470274 -0.12550637 -0.13031168 -0.08126653 -0.45146728 0.4543806
-0.13276947 -0.21369424 3.5447156 1.2974735 -0.13047872 -0.1342212 -3.478119 -0.097368285
-3.0349555 -0.80565715 -0.22457756 -0.28417435 -0.24170588 0.54144233 -0.2810498 -0.1518678

6.weight f4 [32, 128]
00000000: 655c 1bbd bc1f f7bc 8ad8 cebd 334e 23be
00000010: 6094 b53c 4cd7 ba3d 2db7 26bd 83e2 c5bb
00000020: 1b26 bfbd 7e52 89bd e341 04bb d662 d2bc
00000030: 4ee2 4abd 1007 503d b0c3 a4bd 2188 cc3b
00000040: e743 09bd ec85 96bd e1e5 45bd 4566 2fbd
00000050: da9c 2e3d 59dd afbd 7779 dabd 34e9 c9bd
00000060: 559f 5fbd 36fb 4fbe feec aebc 7623 b03c
00000070: 7930 4d3d 32df 563d 8ff2 1ebe 0bc7 8dbd
00000080: e02a 75bc b026 8cbd 58ae af3c 0843 413d
00000090: 261c a13d d1f2 013e 58f3 0fba 0b84 cabc
000000a0: 8bf2 683d 9274 2e3d 84f7 5a3c de72 60bd
000000b0: 90d7 0cbd 51e2 babd 95e3 d5bb b11d 7abd
000000c0: 837f b0bd 4a1e 1e3c c4e7 13bd b15e 9dbc
000000d0: f7de 8cbd 0dc3 edbc 31d2 92bc 72ca fd3c
000000e0: 0aa5 c4bd a8fc bfbd d8ee 9e3d e893 7bbd
000000f0: dfed 28bd 38ea d0bd 14b7 003c 130f 73bd
00000100: 8710 0dbd 4faf a0bd 1fb9 033d f621 543c
00000110: a67a 9d3d ceb5 bebc 3cc4 3abd c717 46bd
00000120: e1e9 e8bc 609b 5f3d 8263 a4bd fe87 af3c
00000130: 1308 61bd bb36 10be e2e8 a2bd 18f1 94bc
00000140: ee18 8e3d faa2 d93c 62c5 45bd 1f49 f6bb
00000150: 2374 9ebd 3a8d c8bc 6f5b 2f3d ea98 bbbd
00000160: 8ca4 71bd 4389 a5bd 6070 783b ee24 30be
00000170: ec62 cabc 3721 a3bd db0c 6d3d 3e00 8abc
00000180: 4a8e 9dbd da49 493c 3a6f f4bc 9f03 443d
00000190: 880d 893d af9c fbbc 17a5 14be e288 08be
000001a0: 6100 a6ba 6f12 903d 2356 fabd 9581 11bd
000001b0: af80 0dbc c563 843c 5780 123d 136e 0abd
000001c0: de1e 123d 5359 03bd 345c 92bd ea97 df3d
000001d0: 2008 dc3c e77e bf3c 127e 57be b851 05bd
000001e0: a326 95bd 3c7f 36bd 01b1 b0bd 18c7 0f3d
000001f0: edfb 713d 8174 69bc 635d 443d 6cb3 d4bc
00000200: 70ea 25bd 06ea 8d3c 988f 89bd a161 0ebe
00000210: 1f97 0cbe c074 c03c 40bf 59bc 1d02 5ebd
00000220: 9e0d 06bd 4e45 503c c226 923b 677d 443c
00000230: 381d f23c 2818 b6bc e035 103e 3a29 7c3d
00000240: 5444 8cbd bd03 7fbd 3a3b 2a3d 4c86 2dbd
00000250: 97ef 1d3a 1a5d 88bb e21a cebc 3ac1 1bbd
00000260: f8c0 2b3d cf63 c2bd 0047 01be f07c 15be
00000270: e0c9 2bba 646e 753d e902 953d 3ba8 c8bb
00000280: 3adb a6bd 45de 8bbd 6ffb 52bd c378 673d
00000290: 0363 85bd 95d9 743d d7bf b23c 2200 92bc
000002a0: 3172 dcba 5e57 8abd 6fe6 f03c 09ba 11bd
000002b0: ceb2 d3bb 5495 5d3d 8ec4 183d a5fb d8bd
000002c0: ea5a 923d 0605 54be d1f6 07be b3f8 f93d
000002d0: 27ad bd3c e16f 6bbd 9002 b23d f6fd 9e3d
000002e0: 8a08 623c 0897 0e3d 54f2 55bd b154 383b
000002f0: 4f2d 8c3c 2322 f2bc 55e7 9bbe 4d2e 893c
00000300: aebd 2fbc 7191 e4bc 8547 95bc 56f5 92bd
00000310: f48a 323d 9273 b8bc f78e 47bd 6363 97bd
00000320: e8d3 9ebd 9164 2ebd a545 da3b fef0 ff3c
00000330: 7813 a2bc 8f80 633d a406 543d aa03 c73d
00000340: de77 b03c 690d 07bc ff7d cebd 516e e4bc
00000350: 94ff f7bd 5450 c2bc 7b8d 2c3d d1ed 8ebd
00000360: 63d7 593d 2d8e 98bd b36c e63c 2ab9 9f3d
00000370: 5364 163d 6f41 5abd 6bf9 aebd 70c3 4f3d
00000380: a54e 0dbe 400e 77bc 7983 67bd 9e44 6e3d
00000390: 08d7 34bd 4d2d d1bd 1d72 003d b831 2f3c
000003a0: 1867 e8bd 5291 a7bc 7067 59bd a3e3 993d
000003b0: 8944 743c 9b90 6dbd 6a84 163d 5615 2b3d
000003c0: 2832 5fbc a5cb cabc 42fc edbc 3edc 6abe
000003d0: e7d8 48bd 369f 51bd 3c7e 3cbe 7044 da3c
000003e0: c3fe 3ebe 5feb e1bd 31b2 96bd b150 02bc
000003f0: 1c75 76bd 71e9 c7ba 9b09 bfba df79 5ebd
-0.03792991 -0.0301665 -0.10099895 -0.159478 0.022165477 0.09123096 -0.040702034 -0.006038965
-0.0933344 -0.06705187 -0.0020180873 -0.025681894 -0.049532227 0.050787985 -0.08045137 0.006241814
-0.033512022 -0.07349762 -0.048314933 -0.04282214 0.042630054 -0.085871406 -0.10667699 -0.09858933
-0.05459531 -0.20310673 -0.021353241 0.021501284 0.050095055 0.05245895 -0.15522216 -0.0692273
-0.0149638355 -0.068433166 0.021445438 0.047183067 0.07866697 0.12690283 -0.0005491278 -0.024721166
0.056871932 0.04259164 0.013364676 -0.054797046 -0.034385264 -0.09125198 -0.006527374 -0.061063472
-0.08618071 0.009650776 -0.0361097 -0.019210191 -0.06878465 -0.029023672 -0.017922493 0.030980323
-0.09601791 -0.09374362 0.077603996 -0.06142035 -0.041242477 -0.10200924 0.007856149 -0.059340548
-0.03443959 -0.078459375 0.032158967 0.01294755 0.07689409 -0.02328005 -0.0455973 -0.04836252
-0.028431835 0.054591537 -0.08026792 0.02142715 -0.05493934 -0.14083378 -0.07954575 -0.018181369
0.06938349 0.026566971 -0.048283942 -0.007516041 -0.07736995 -0.024481405 0.042811807 -0.091600254
-0.058994815 -0.08082821 0.0037908778 -0.17201588 -0.024705373 -0.079653196 0.057873588 -0.016845819
-0.07693155 0.012285674 -0.029838193 0.047855016 0.06692034 -0.030714361 -0.14516102 -0.13333467
-0.0012664908 0.07034766 -0.122234605 -0.03552397 -0.008636638 0.016160855 0.035766926 -0.03379638
0.03567397 -0.032067608 -0.071464926 0.10917647 0.026859343 0.023375941 -0.21044186 -0.032548636
-0.0728276 -0.044554934 -0.08627511 0.03510198 0.059078146 -0.014248968 0.047940623 -0.025964461
-0.04050678 0.017323505 -0.067168415 -0.1390443 -0.13729523 0.02349317 -0.013290226 -0.054201234
-0.03272783 0.012711836 0.0044601867 0.011992789 0.029554948 -0.022228315 0.14083052 0.061562754
-0.0684897 -0.062259424 0.04156039 -0.042364404 0.00060247764 -0.004161489 -0.025159303 -0.038026072
0.041932076 -0.09491693 -0.1262474 -0.14598441 -0.0006553214 0.05991973 0.07275946 -0.0061235703
-0.08147283 -0.06829504 -0.051509317 0.05651165 -0.065130256 0.059777815 0.021819992 -0.017822329
-0.00168187 -0.06754945 0.029406754 -0.035577808 -0.006460524 0.05409749 0.037296824 -0.105948724
0.07146247 -0.20705041 -0.13277747 0.12205639 0.023153855 -0.057479743 0.08691895 0.07763283
0.013795981 0.034812003 -0.052233055 0.0028126652 0.017111449 -0.029557293 -0.3044993 0.01674571
-0.0107263755 -0.027901383 -0.01822258 -0.071757 0.043589547 -0.022516046 -0.048720326 -0.073920034
-0.07755262 -0.042576376 0.0066611343 0.031242844 -0.019784674 0.055542525 0.051764145 0.09717496
0.021541532 -0.008242943 -0.100826256 -0.027884634 -0.121092945 -0.023719944 0.042127114 -0.06978954
0.053183924 -0.07448993 0.028128004 0.07798989 0.03671677 -0.05328506 -0.085436665 0.050723493
-0.13799532 -0.015079081 -0.056521866 0.058170907 -0.044150382 -0.102137186 0.031358827 0.010693006
-0.113477886 -0.020455036 -0.05307716 0.075141214 0.014908918 -0.057999235 0.036747374 0.041768394
-0.013622798 -0.024755308 -0.02905095 -0.22935578 -0.04903498 -0.051177226 -0.1840753 0.026643962
-0.18651871 -0.110312216 -0.07358206 -0.007953809 -0.060170278 -0.0015252066 -0.0014575006 -0.054315444

6.bias f4 [32]
00000000: 009c f6bd 9133 3cbd df56 e2bd 402c 50c0
00000010: 8054 90bd da6c 1cbe 40e0 683e eb06 afbd
00000020: 9570 70bf 2a77 7dbd 37e9 25be eb9a 453d
00000030: 5232 94bd b25a 48be 911f 2140 8240 3bbe
00000040: 1462 b7be d06f ddbd d3f9 ebbd faf3 fd3e
00000050: aac1 96bd e382 3cbd e668 debd fa25 56be
00000060: 3ac8 23be 9b99 06be 469e cdbd a0f6 cbbd
00000070: 8bf5 b0bd cfcf bfbc f722 17be e5bb 5abf
-0.120414734 -0.045947615 -0.110517256 -3.2527008 -0.07047367 -0.15275899 0.22741795 -0.085462414
-0.93921787 -0.06188122 -0.16202246 0.048243444 -0.0723616 -0.19565848 2.5175517 -0.18286327
-0.35817015 -0.10812342 -0.115222596 0.49600202 -0.07361157 -0.04602326 -0.108598515 -0.20912924
-0.15994349 -0.13144533 -0.10039954 -0.09959149 -0.086405836 -0.02341452 -0.14759432 -0.85442954

8.weight f4 [1, 32]
00000000: a28d e0bb 552c 6ebc 1e78 efbb 53d1 d2be
00000010: 364e b93c 61e5 ebbc 830a bbbc 5ccf 75bd
00000020: 1352 1e3e 7845 8abc b969 9c3c 8c4a 29be
00000030: e486 ec3a 2c0b b2bd 5046 c5bd af21 a53c
00000040: 5fdd efbc f702 ae3c 5675 87bc 5194 253c
00000050: 4156 c5bd 5817 643c 08cf 793c 1e0c 31bc
00000060: 8f9c 83bb 0adb 82bc 19ae 1dbc bd07 2e3d
00000070: 00ce e63c 699e 96bc c11e ef3c e6bc 7c3d
-0.0068528214 -0.014536937 -0.0073080203 -0.41175327 0.022620302 -0.0287959 -0.02283216 -0.060012206
0.15460996 -0.016878828 0.019093381 -0.16532344 0.0018045572 -0.08693537 -0.09632552 0.020157663
-0.029280363 0.021241648 -0.016535442 0.010106162 -0.09635592 0.013921581 0.015247114 -0.010806112
-0.004016466 -0.015973587 -0.009624028 0.04248785 0.0281744 -0.018386083 0.02918947 0.061703585
